gat_model_final.pth (torch, 391524 bytes, 19 tensors)

att_src f4 [1, 4, 64]
-0.3285244 -0.19723676 -0.54858667 0.4046934 0.2621616 -0.21849388 0.13778135 -0.2544931
0.045718238 -0.09047732 0.15574923 -0.19593455 0.14313671 -0.6825885 -0.24746425 -0.32414964
0.40610528 0.023718005 0.03201808 0.07958351 -0.7712449 0.35726613 0.2890031 0.23804045
0.29219916 0.148411 0.07502054 -0.08144498 0.16366483 -0.6710086 0.68435013 0.9738213
-0.40391144 -0.20347647 -0.5133464 0.048139233 -0.17484619 -0.16541994 -0.36576605 -0.35092917
-0.39649287 -0.4977078 -0.05638193 -0.030631002 -0.2421176 0.35919932 0.14030449 -0.6483458
0.72110546 -0.12493371 0.15929163 -0.43365663 -0.475035 0.1524991 -0.3801628 0.77062076
-0.2383049 0.10470837 -0.4526381 -0.43899354 -0.23470205 0.31945542 0.3644646 0.25638402
0.26285174 0.031977404 -0.0020351494 0.0337502 -0.108712465 0.121703185 0.09972544 0.10943941
-0.13294615 0.2429903 0.22965844 0.2071895 -0.17232276 -0.06438469 -0.1199886 0.063495286
0.21941885 0.00017369026 -0.13680822 0.23920189 -0.21989995 -0.16962354 -0.19676082 0.02957284
-0.13175744 -0.091594 0.22092113 -0.015031438 0.13734299 0.14397417 -0.09814919 -0.1694074
-0.22853717 -0.12621954 -0.14728187 -0.034544982 -0.020870429 -0.15167274 0.30789214 -0.018095858
0.06224616 -0.04753691 0.18007804 0.10628075 0.09112092 0.13214496 -0.16305618 -0.09899504
0.12505035 0.08452688 -0.053142503 -0.30240515 -0.11772006 -0.26665887 0.072845854 0.024933971
-0.034267474 0.12645568 0.12530537 0.08951698 0.27054572 -0.09577537 0.11775126 0.25872132
0.17448741 0.75791883 -0.6591735 -0.4095984 0.45995963 -0.78886193 -0.3556104 -0.21780406
0.6845003 0.01662703 0.34212613 0.2705958 -0.78796124 0.85401636 -0.021163551 0.7221066
-0.462688 -0.56303984 0.46261188 -0.41294196 0.17530917 -0.597633 0.17750731 -0.73589045
0.22593725 0.09003045 -0.6074232 0.027111394 -0.20094281 -0.18193151 0.6175613 0.90528864
-0.2501883 0.5590595 -0.4147469 -0.06650784 0.65037435 -0.580008 0.20442046 0.34028617
0.4643698 -0.52784693 0.44397077 -0.48281056 -0.03765139 -0.30697215 -0.3141905 -0.5356631
0.04297514 -0.26858056 -0.2968842 -0.12681416 -0.16773851 0.19418938 0.1588397 -0.30043614
-0.10497365 0.46429396 0.432239 -0.12602068 -0.37369087 0.53982365 -0.4751558 -0.18538386
-0.04325833 0.036304425 0.05084203 -0.12466957 0.017640242 0.015200746 -0.005712406 -0.054747183
-0.12627469 -0.102417596 -0.39754733 0.098280534 -0.12386791 0.19609496 0.24164285 -0.18508187
-0.007920456 -0.020829638 -0.2681336 -0.3663407 -0.036689084 -0.17324452 0.09970985 0.2593089
-0.3479497 0.3677666 0.33119816 0.062899254 0.023681218 -0.2050188 0.36982116 0.009056042
-0.14204873 0.059834428 0.15862398 0.4241369 0.05262726 -0.16736524 0.4951105 0.10623168
-0.1377018 -0.15737046 -0.07845224 0.022364462 0.071537524 -0.08794461 0.28158015 0.22169137
-0.024774376 -0.09276621 0.0891771 -0.0151199745 0.32035464 0.32303578 -0.29790965 -0.13817337
0.00901239 0.071786806 -0.17295271 0.14066467 -0.06393202 0.09973947 -0.019169651 0.30230623
00000000: 5a34 a8be 6ff8 49be 2d70 0cbf f933 cf3e
00000010: 0c3a 863e dcbc 5fbe 8e16 0d3e eb4c 82be
00000020: 0c43 3b3d 2c4c b9bd ba7c 1f3e 11a3 48be
00000030: 6e92 123e 1fbe 2ebf 4567 7dbe f1f6 a5be
00000040: 08ed cf3e 434c c23c 6425 033d aefc a23d
00000050: 4e70 45bf 96eb b63e 37f8 933e e0c0 733e
00000060: 219b 953e 0ef9 173e 5ea4 993d a0cc a6bd
00000070: c197 273e 38c7 2bbf 9231 2f3f 5a4c 793f
00000080: 7bcd cebe 235c 50be ab6a 03bf a52d 453d
00000090: e10a 33be d863 29be b045 bbbe fdac b3be
000000a0: 1d01 cbbe 8fd3 febe bdf0 66bd deed fabc
000000b0: aded 77be f9e8 b73e fbab 0f3e fef9 25bf
000000c0: 5e9a 383f 3fdd ffbd 581d 233e 3e08 debe
000000d0: ca37 f3be b928 1c3e b3a4 c2be 6747 453f
000000e0: 3306 74be 5871 d63d 2ec0 e7be c3c3 e0be
000000f0: bc55 70be a98f a33e 1b9b ba3e c444 833e
00000100: 8194 863e bdfa 023d 2460 05bb a63d 0a3d
00000110: a4a4 debd 853f f93d da3c cc3d c521 e03d
00000120: 0923 08be 73d2 783e 952b 6b3e 7c29 543e
00000130: 6175 30be 1fdc 83bd 95bc f5bd d109 823d
00000140: 56af 603e a020 3639 7417 0cbe 57f1 743e
00000150: 742d 61be cbb1 2dbe ab7b 49be be42 f23c
00000160: 6ceb 06be a395 bbbd 2639 623e 6c46 76bc
00000170: a4a3 0c3e f76d 133e 7102 c9bd 2279 2dbe
00000180: a605 6abe b23f 01be 0fd1 16be 0a7f 0dbd
00000190: 76f8 aabc 1950 1bbe 0aa4 9d3e c43d 94bc
000001a0: d4f5 7e3d 10b6 42bd 6166 383e b9a9 d93d
000001b0: 9b9d ba3d 0251 073e 33f8 26be e9bd cabd
000001c0: 330d 003e 6e1c ad3d f4ab 59bd d9d4 9abe
000001d0: 3717 f1bd 8387 88be 3530 953d 5442 cc3c
000001e0: 0d5c 0cbd 997d 013e 0d50 003e ae54 b73d
000001f0: f884 8a3e e125 c4bd 9327 f13d 1f77 843e
00000200: d4ac 323e f806 423f 98bf 28bf e2b6 d1be
00000210: d47f eb3e dbf2 49bf 9112 b6be 0708 5fbe
00000220: 693b 2f3f 6935 883c 282b af3e 888b 8a3e
00000230: d4b7 49bf d1a0 5a3f 2f5f adbc fadb 383f
00000240: 71e5 ecbe 6123 10bf 77db ec3e 216d d3be
00000250: 3f84 333e 7afe 18bf 7ac4 353e 5163 3cbf
00000260: 185c 673e e261 b83d 1680 1bbf b718 de3c
00000270: f4c3 4dbe 414c 3abe 7f18 1e3f ffc0 673f
00000280: ae18 80be 861e 0f3f b559 d4be 4335 88bd
00000290: ef7e 263f 677b 14bf 9953 513e fd39 ae3e
000002a0: e1c1 ed3e fa20 07bf 2350 e33e f232 f7be
000002b0: 5838 1abd 742b 9dbe 94dd a0be 3821 09bf
000002c0: b306 303d 6483 89be 3501 98be 92db 01be
000002d0: a5c3 2bbe 95d9 463e e0a6 223e c4d2 99be
000002e0: 6dfc d6bd f0b7 ed3e 6e4e dd3e 910b 01be
000002f0: 6954 bfbe e231 0a3f 9f47 f3be 44d5 3dbe
00000300: a62f 31bd f3b3 143d bc3f 503d c252 ffbd
00000310: 4582 903c 8d0c 793c 222f bbbb 953e 60bd
00000320: 274e 01be 51c0 d1bd 538b cbbe 4e47 c93d
00000330: 75ae fdbd 1ecd 483e 3971 773e 1a86 3dbe
00000340: cdc4 01bc eba2 aabc cf48 89be 0291 bbbe
00000350: 4b47 16bd 0367 31be ae34 cc3d 23c4 843e
00000360: 7726 b2be e74b bc3e ce92 a93e 53d1 803d
00000370: 1dff c13c 73f0 51be 3359 bd3e cb5f 143c
00000380: 3975 11be f214 753d 536e 223e 7928 d93e
00000390: af8f 573d cb61 2bbe 207f fd3e ff8f d93d
000003a0: b301 0dbe b925 21be 91ab a0bd ad35 b73c
000003b0: 4482 923d 4e1c b4bd 462b 903e 1003 633e
000003c0: a2f3 cabc 36fc bdbd 7ca2 b63d c5b9 77bc
000003d0: 8605 a43e f264 a53e 9d87 98be 527d 0dbe
000003e0: b4a8 133c f604 933d 841a 31be 660a 103e
000003f0: caee 82bd 3544 cc3d ac09 9dbc e2c7 9a3e

att_dst f4 [1, 4, 64]
0.08506744 0.16059051 -0.16445678 0.15511309 0.193321 -0.2609132 0.053067304 0.09189498
-0.038847204 -0.25952777 -0.14899583 0.25714976 0.05937692 0.20761825 0.15999836 0.18296826
0.15202808 0.0072627184 0.065013245 -0.17378925 0.15523882 -0.15024179 -0.17721643 -0.011962466
-0.101398475 -0.11390181 -0.25970802 -0.20598906 -0.216423 -0.21451375 -0.10219453 -0.086103156
-0.26919347 0.1436371 0.24565235 0.08848653 0.123180345 0.12442474 0.18889633 -0.08774295
-0.14979775 0.20509823 0.05154561 -0.11371254 0.13672675 -0.20509967 0.03371327 -0.10920416
0.22763218 0.03638257 -0.2911727 0.01959066 -0.3021035 -0.054961856 -0.16020612 -0.14686094
-0.041857738 0.12641253 -0.20082395 -0.17475775 0.2739522 0.19910386 0.030403433 -0.32276273
0.16105585 0.054444116 0.0486287 -0.10740756 0.07367726 0.25918978 0.06106774 -0.21507639
-0.14811648 -0.2656286 0.10001989 0.13295399 -0.2618134 0.13692313 -0.07331431 -0.19550829
-0.09104012 0.059142772 -0.28160635 0.20485434 -0.03832381 -0.25806236 -0.07725222 -0.12790917
0.20162271 0.10614943 0.16083352 -0.2513488 -0.05784499 0.39129683 -0.37645593 0.072096445
-0.4115401 -0.16197434 -0.11700278 -0.2913703 0.2717967 -0.015946405 -0.22840509 0.20219359
-0.27180147 -0.06829734 0.03458761 0.20225003 -0.12233962 0.16971956 -0.11465882 0.26443523
0.18189909 -0.019982858 -0.12933846 0.18802527 0.084310144 -0.10254153 0.10710772 -0.010628831
-0.17869417 0.049295045 -0.31266522 -0.43597454 0.2746875 -0.052844185 -0.43157405 0.059813216
0.018319787 0.0058067264 -0.11709657 -0.44462186 0.12293419 -0.14037041 -0.074431725 0.017873077
0.018725423 -0.022490703 -0.18438634 -0.4356153 -0.32241768 -0.14309758 -0.03829514 -0.04480751
0.22083831 -0.45488426 0.40006566 0.1160716 0.11746701 -0.27517077 -0.05157954 -0.014783774
0.0033042952 -0.042986725 0.38038367 -0.08425214 -0.43033844 -0.08251233 -0.18680449 0.02984378
-0.04808113 0.33459917 0.0535037 0.21671943 0.17619078 0.058638737 -0.3006167 0.40292892
-0.054040506 -0.074215606 0.28529638 -0.15562442 -0.34419322 -0.08707489 0.10377154 0.26509616
0.051196907 0.1921455 -0.12925504 -0.12990274 0.083244264 -0.27666494 0.055103466 0.16593094
-0.020089531 -0.30288097 -0.4029518 -0.4975575 0.04183474 0.4173801 0.007836234 -0.299178
0.3937466 -0.4307873 -0.16441572 -0.1898676 -0.09565917 0.2496356 -0.04244421 0.04637537
0.2517883 0.20076758 -0.07771357 0.10539967 0.23860374 -0.0942641 0.05776117 0.078582
-0.17824745 0.13730557 0.03364167 0.117365345 0.10292324 0.35474777 -0.2912535 -0.22780804
-0.035001315 0.12263847 -0.15733321 -0.045373324 -0.34217578 -0.05772613 -0.3176748 -0.4691985
0.20111866 0.23565936 0.40030706 -0.11224889 0.18621814 -0.24080062 0.10186622 0.13812119
0.13814414 -0.23209597 -0.35678256 -0.04724341 0.23633055 0.00801233 0.25740343 0.15972798
0.05157849 -0.35915974 0.20913336 -0.4048234 0.18463688 -0.12016277 0.35108218 -0.394569
-0.32794362 0.20781203 0.0011299048 0.41320363 0.08423396 -0.023246098 0.10796086 0.27354085
00000000: d737 ae3d d771 243e 5c67 28be f7d5 1e3e
00000010: f1f5 453e 6a96 85be 1a5d 593d 6f33 bc3d
00000020: 3f1e 1fbd d3e0 84be 5d92 18be 22a9 833e
00000030: 3735 733d e199 543e 9cd6 233e 085c 3b3e
00000040: 40ad 1b3e 19fc ed3b aa25 853d cff5 31be
00000050: edf6 1e3e fcd8 19be 3978 35be 38fe 43bc
00000060: 01aa cfbd 5a45 e9bd 73f8 84be ccee 52be
00000070: fe9d 5dbe 7ea9 5bbe 5e4b d1bd da56 b0bd
00000080: bad3 89be 9b15 133e 4a8c 7b3e 6d38 b53d
00000090: fa45 fc3d 66d2 fe3d 0a6e 413e 93b2 b3bd
000000a0: 9564 19be 4505 523e 7d21 533d 1fe2 e8bd
000000b0: 1902 0c3e a605 52be ed16 0a3d 6ea6 dfbd
000000c0: 6918 693e e405 153d 9714 95be 987c a03c
000000d0: 4fad 9abe af1f 61bd 130d 24be b762 16be
000000e0: 0573 2bbd 4972 013e cba4 4dbe b2f3 32be
000000f0: 7643 8c3e e2e1 4b3e 9f10 f93c 2841 a5be
00000100: d3eb 243e cb00 5f3d e32e 473d 7ff8 dbbd
00000110: 1ae4 963d 86b4 843e 2b22 7a3d fc3c 5cbe
00000120: d9ab 17be 7900 88be 3ad7 cc3d 1725 083e
00000130: 680c 86be 9435 0c3e d025 96bd 5333 48be
00000140: 3e73 babd b13f 723d b52e 90be 56c5 513e
00000150: 6df9 1cbd c020 84be 6936 9ebd 9ffa 02be
00000160: 2f76 4e3e df64 d93d 8bb1 243e cab0 80be
00000170: deee 6cbd 0f58 c83e d5be c0be 4da7 933d
00000180: 62b5 d2be 9adc 25be 279f efbd 7d2e 95be
00000190: f028 8b3e 09a2 82bc 06e3 69be d60b 4f3e
000001a0: 9029 8bbe 7adf 8bbd bdab 0d3d a21a 4f3e
000001b0: 328d fabd f7ca 2d3e 3ed2 eabd 0e64 873e
000001c0: c143 3a3e 17b3 a3bc 4d71 04be b289 403e
000001d0: ccaa ac3d 4b01 d2bd 4b5b db3d 8c24 2ebc
000001e0: 9bfb 36be 9ae9 493d a815 a0be 0e38 dfbe
000001f0: d7a3 8c3e 2573 58bd 46f7 dcbe b4fe 743d
00000200: 6113 963c 5a46 be3b 54d0 efbd 7aa5 e3be
00000210: ecc4 fb3d 43bd 0fbe a96f 98bd 8f6a 923c
00000220: 0f66 993c 6c3e b8bc c6cf 3cbe f808 dfbe
00000230: ee13 a5be 2c88 12be 5ddb 1cbd 1488 37bd
00000240: 7023 623e 97e6 e8be 68d5 cc3e f2b6 ed3d
00000250: 8b92 f03d 2fe3 8cbe 1145 53bd a437 72bc
00000260: e08c 583b d912 30bd a6c1 c23e 638c acbd
00000270: 5255 dcbe 39fc a8bd ad49 3fbe f17a f43c
00000280: b8f0 44bd 9550 ab3e b226 5b3d b3eb 5d3e
00000290: 5b6b 343e 2c2f 703d 6fea 99be b34c ce3e
000002a0: 9459 5dbd 5afe 97bd 5e12 923e 025c 1fbe
000002b0: 183a b0be 5254 b2bd 2c86 d43d afba 873e
000002c0: d9b3 513d cac1 443e 6f5b 04be 3905 05be
000002d0: f87b aa3d 07a7 8dbe 2cb4 613d cde9 293e
000002e0: cd92 a4bc 3713 9bbe b34f cebe dbbf febe
000002f0: e85a 2b3d d8b2 d53e 8c63 003c dc2d 99be
00000300: 2899 c93e 2790 dcbe 985c 28be a76c 42be
00000310: f4e8 c3bd 7aa0 7f3e fbd9 2dbd 1af4 3d3d
00000320: 65ea 803e 0496 4d3e 4b28 9fbd c8db d73d
00000330: 8a54 743e 890d c1bd fa96 6c3d 9aef a03d
00000340: 8086 36be d599 0c3e d9cb 093d 3e5d f03d
00000350: 6bc9 d23d 80a1 b53e 2e1f 95be 8346 69be
00000360: 8a5d 0fbd e129 fb3d f51b 21be 61d9 39bd
00000370: aa31 afbe 3c72 6cbd 45a6 a2be c93a f0be
00000380: 0df2 4d3e b050 713e 0cf5 cc3e bfe2 e5bd
00000390: f8af 3e3e 7094 76be 3d9f d03d a46f 0d3e
000003a0: a875 0d3e 91aa 6dbe 34ac b6be 4e82 41bd
000003b0: a300 723e 2646 033c 62ca 833e bb8f 233e
000003c0: f743 533d c9e3 b7be 0e27 563e 0345 cfbe
000003d0: 7311 3d3e e617 f6bd 0bc1 b33e f304 cabe
000003e0: 3ae8 a7be adcc 543e 5019 943a 6d8f d33e
000003f0: db82 ac3d 9a6e bebc 951a dd3d 8c0d 8c3e

bias f4 [256]
0.043165788 0.0011828012 0.010867984 -0.052030317 -0.018972851 0.022820793 -0.051187377 0.008952012
-0.06804175 0.028008081 0.022335006 -0.06897814 0.06964064 -0.021258632 0.018959664 0.0045692506
-0.018530333 0.0950659 -0.007784899 0.032908443 -0.011498046 -0.0038779657 -0.04815727 -0.033591207
-0.023722863 0.028533516 0.0024774584 -0.067544304 -0.08419688 -0.050723903 -0.022468582 0.024196057
0.051931243 0.022017242 -0.045057684 -0.009485803 -0.005596275 0.015047385 -0.012114633 0.07990391
0.038147207 0.21702804 -0.04124759 -0.05295648 -0.023137141 -0.051854298 0.021143902 -0.03420323
0.046287164 -0.08396548 -0.025211262 -0.01271349 0.12932876 -0.07939725 -0.0060036513 -0.008679066
-0.033936292 0.011431116 -0.03629996 0.024063505 0.05058785 -0.11249183 -0.0014276935 -0.03464338
0.016220057 -0.09227656 -0.021804579 -0.0067587425 0.06841492 0.055643853 0.090488635 0.0054967557
-0.05412538 0.0389361 -0.04549997 -0.009243589 0.13535613 -0.09992669 0.022048794 0.05588023
-0.027226388 -0.021716878 -0.06796701 0.018488852 -0.010252466 -0.039842688 -0.025031008 -0.051792152
0.065081775 0.059180487 -0.030754667 -0.077335745 0.05715168 0.021900862 -0.051197827 -0.024747357
-0.013440053 0.045482684 -0.010965112 0.010251283 -0.09788848 -0.009859885 -0.02450448 -0.019763218
-0.08168726 0.0004530281 0.031344477 0.04489413 -0.021570614 -0.040303472 0.03362159 -0.07424996
0.019494684 0.009153661 0.0661046 0.017818578 0.015110836 -0.010613523 -0.017807335 0.050651122
-0.03914212 0.02634938 -0.036215454 -0.035476 0.025578056 0.006883815 -0.011132444 0.0046575014
0.047759395 0.00026867172 0.0074296277 0.012825221 -0.012913028 -0.04667888 0.034224894 -0.006990697
-0.026805177 0.07747119 0.06178565 0.055304293 -0.05074807 -5.219487e-05 -0.043436337 -0.04466362
0.047829524 -0.03702584 -0.03988623 -0.022092456 -0.050516576 0.020513503 -0.018888932 0.030325154
-0.08361435 -0.0412327 0.017925544 -0.036662538 -0.06890053 0.03710815 -0.00581208 -0.0008002449
0.0016453218 -0.008657259 -0.013341479 -0.00038050042 0.015259548 -0.015291126 -0.021384487 0.010163198
-0.008556763 -0.007968173 0.027379708 0.0136971865 -0.044672407 0.041238144 0.077979915 0.006216969
-0.070531875 0.089402944 0.047450516 0.002332813 0.051230922 -0.08400626 0.077215284 0.08671852
-0.013677609 -0.00081772363 0.019113557 -0.029402984 0.0010785972 -0.014290735 0.038447343 -0.040447477
0.023260148 0.008908947 -0.03970763 -0.059096858 -0.08371946 0.016876796 0.009061253 -0.04334424
-0.0053413515 -0.020203792 0.0037788574 0.06804532 -0.09754124 -0.06953465 0.03807971 -0.07096295
-0.08634796 -0.0061454047 -0.08880162 0.040247895 0.029125364 -0.024345735 0.033479396 0.016904
-0.07648018 0.01635701 0.10557762 -0.048743 -0.07346321 -0.056569315 0.0025527864 -0.05102949
-0.03205701 0.0050689736 -0.0068378416 0.049764566 -0.0017454393 -0.00027023657 0.025982624 -0.038806107
-0.015186908 0.031827897 0.015188506 -0.07861436 -0.0065374863 -0.05160095 0.027835127 0.044326536
-0.043905716 -0.05954631 0.04764976 0.032773364 0.052802373 0.0010584471 0.026976055 -0.0147063965
0.06756276 -0.014724427 0.010915913 0.029288951 0.05263601 -0.008410117 -0.0378503 -0.0015477156
00000000: 9cce 303d 3908 9b3a a10f 323c be1d 55bd
00000010: f46c 9bbc acf2 ba3c dba9 51bd 76ab 123c
00000020: 7959 8bbd 3471 e53c e7f7 b63c 6944 8dbd
00000030: c09f 8e3d 9526 aebc 4c51 9b3c a7b9 953b
00000040: edcc 97bc e9b1 c23d 7718 ffbb 01cb 063d
00000050: 4d62 3cbc 7825 7ebb 8f40 45bd ef96 09bd
00000060: 7356 c2bc 1fbf e93c db5c 223b ab54 8abd
00000070: 6a6f acbd dec3 4fbd 0810 b8bc cf36 c63c
00000080: dbb5 543d 815d b43c 688e 38bd 576a 1bbc
00000090: f560 b7bb 4f89 763c 747c 46bc a9a4 a33d
000000a0: 3f40 1c3d 993c 5e3e 3cf3 28bd e5e8 58bd
000000b0: 1a8a bdbc 2c65 54bd fa35 ad3c b018 0cbd
000000c0: 9c97 3d3d 18f6 abbd d987 cebc 3e4c 50bc
000000d0: c26e 043e 079b a2bd 47ba c4bb a432 0ebc
000000e0: c800 0bbd 9349 3b3c 44af 14bd d420 c53c
000000f0: 3535 4f3d 1e62 e6bd 7221 bbba 38e6 0dbd
00000100: eddf 843c 7efb bcbd 849f b2bc 7178 ddbb
00000110: 1f1d 8c3d cfea 633d 1b52 b93d 211e b43b
00000120: 93b2 5dbd 767b 1f3d 2d5e 3abd 6c72 17bc
00000130: cc9a 0a3e 5da6 ccbd ac9f b43c abe2 643d
00000140: e009 dfbc 98e7 b1bc 4a32 8bbd ef75 973c
00000150: f6f9 27bc 1632 23bd d40d cdbc 0224 54bd
00000160: 9849 853d 3d67 723d 36f1 fbbc 3462 9ebd
00000170: e117 6a3d 7069 b33c d0b4 51bd f8ba cabc
00000180: ab33 5cbc 0d4c 3a3d 03a7 33bc fff4 273c
00000190: c179 c8bd 5b8b 21bc 9fbd c8bc 79e6 a1bc
000001a0: a64b a7bd 6784 ed39 1163 003d e8e2 373d
000001b0: dbb4 b0bc 4115 25bd cbb6 093d 5d10 98bd
000001c0: 51b3 9f3c 3df9 153c d961 873d 44f8 913c
000001d0: 7193 773c 58e4 2dbc b0e0 91bc 8d77 4f3d
000001e0: 7d53 20bd a8da d73c a856 14bd 484f 11bd
000001f0: 1289 d13c a091 e13b db64 36bc f49d 983b
00000200: 5b9f 433d 82dc 8c39 3c74 f33b e020 523c
00000210: 2a91 53bc 5a32 3fbd 672f 0c3d 3712 e5bb
00000220: 8896 dbbc 37a9 9e3d f312 7d3d c186 623d
00000230: 35dd 4fbd d1eb 5ab8 4dea 31bd 33f1 36bd
00000240: e4e8 433d 68a8 17bd be5f 23bd 3dfb b4bc
00000250: 78ea 4ebd ef0b a83c f6bc 9abc 756c f83c
00000260: 003e abbd 9fe3 28bd 97d8 923c 752b 16bd
00000270: b91b 8dbd b7fe 173d 4373 bebb 87c7 51ba
00000280: d7a7 d73a 2dd7 0dbc 3896 5abc e77d c7b9
00000290: 2f03 7a3c a287 7abc 852e afbc 8b83 263c
000002a0: aa31 0cbc f18c 02bc 694b e03c 2a6a 603c
000002b0: 6afa 36bd 54e9 283d efb3 9f3d b7b7 cb3b
000002c0: 0473 90bd e418 b73d 795b 423d 1ce2 183b
000002d0: 84d7 513d 790b acbd 0c23 9e3d 7b99 b13d
000002e0: 0d18 60bc 815c 56ba 0994 9c3c 87de f0bc
000002f0: b75f 8d3a b023 6abc f67a 1d3d 41ac 25bd
00000300: 118c be3c d5f6 113c 78a4 22bd 8c0f 72bd
00000310: 1c75 abbd 3541 8a3c a675 143c bb89 31bd
00000320: 8106 afbb 6c82 a5bc b5a6 773b 585b 8b3d
00000330: b4c3 c7bd 2f68 8ebd 78f9 1b3d 0655 91bd
00000340: 33d7 b0bd 645f c9bb a0dd b5bd fada 243d
00000350: 5198 ee3c b570 c7bc b121 093d 427a 8a3c
00000360: a4a1 9cbd 23ff 853c 1439 d83d bda6 47bd
00000370: e173 96bd 3ab5 67bd a64c 273b 4c04 51bd
00000380: 364e 03bd a219 a63b f90f e0bb eed5 4b3d
00000390: 39c7 e4ba 8aae 8db9 83d9 d43c 27f3 1ebd
000003a0: 82d2 78bc f85d 023d 36d9 783c 9100 a1bd
000003b0: 6938 d6bb 855b 53bd 7e06 e43c be8f 353d
000003c0: 7bd6 33bd d5e6 73bd 652c 433d 5d3d 063d
000003d0: 4d47 583d 97bb 8a3a e3fc dc3c 19f3 70bc
000003e0: 585e 8a3d b93e 71bc a8d8 323c 62ef ef3c
000003f0: db98 573d 96ca 09bc eb08 1bbd b8dc caba

weight f4 [256, 6]
0.06508656 0.13496113 0.18982147 -0.6109439 0.16536832 -0.043214325 0.039562512 0.09449644
0.13291837 -0.7123264 -0.50797695 0.07274332 0.015842278 0.3619116 0.46015087 0.038347006
0.65313256 0.49038866 -0.06609652 -0.044998497 -0.32486892 0.31129238 0.06180811 0.10679287
-0.13142239 -0.023271205 -0.13529241 0.2048225 -0.13171002 -0.393257 -0.015827393 0.31567365
0.010996908 -0.37370536 0.5273966 0.046910502 -0.069187745 0.16347015 -0.064858794 0.3213424
-0.15270022 0.1622623 -0.07007767 0.34045982 0.21753582 -0.19383214 0.1484351 0.24170528
0.078551315 -0.0012817844 -0.089333974 -0.3171371 0.75783986 -0.1686091 -0.1369456 0.31710672
-0.03914193 -0.11334152 -0.22260489 0.14506237 0.052728318 0.10945754 0.10857636 0.28874037
0.10428437 0.022635918 -0.18126048 0.17625491 0.16054301 0.12546237 -0.62135065 0.033868242
-0.19368467 0.1640943 -0.07361961 0.21063794 -0.3689945 0.12263236 -0.04554145 0.22627474
0.1757719 -0.62333584 -0.1004083 0.21078703 -0.038727514 0.13262692 0.10519514 -0.5713262
0.54884183 0.18493116 0.0647582 0.1874278 0.21950407 0.0067066387 0.3866061 0.3045071
0.018611336 -0.037043504 -0.14288288 0.55235004 -0.14836517 -0.16837673 -0.07596113 0.15378188
0.08528405 0.19794635 -0.14641577 -0.042325888 -0.11689484 0.3188171 -0.1336866 -0.061330557
-0.6334312 -0.08616959 -0.18852954 0.01936295 -0.09537977 -0.012486948 -0.03938918 -0.15474834
-0.004651523 0.33492866 0.2614496 -0.5157547 -0.021683004 0.6765266 -0.041854013 0.099349216
-0.4734934 -0.081093386 0.25968856 -0.088825725 -0.11182008 0.2417383 -0.07868495 0.1158943
-0.5387264 0.0787255 -0.026183626 -0.12701675 -0.11986801 0.05437862 -0.02729712 -0.39304388
-0.050037965 -0.26452813 -0.34186035 0.11285465 0.23098311 -0.14660865 0.2416549 -0.14314659
-0.06030958 0.089751944 0.6775027 0.020563455 0.19583528 0.13054512 0.058386892 0.06894772
0.7322792 0.14708842 -0.07758234 0.2201585 -0.05675861 0.0062727663 -0.0004386853 0.32121652
-0.115113705 -0.050585616 -0.4209504 -0.17222418 0.28566253 -0.19627301 0.013140091 0.43525657
0.31851482 -0.31830868 0.10821507 0.60442954 -0.110916786 -0.1368031 -0.3300103 0.2859315
0.120083444 -0.21717845 -0.050402932 -0.031159844 -0.2677525 0.43259826 -0.010014893 -0.14214481
-0.05513213 0.34075856 0.2187076 -0.014871713 0.15032862 0.07837385 -0.24314478 -0.21917401
0.03367072 -0.24837916 -0.11917751 0.11143978 0.10741395 0.25519797 0.43120888 -0.080309846
0.21424687 0.3410018 -0.09628994 0.13845727 -0.018411553 0.16331804 -0.26183707 0.2974149
0.028537048 0.31684574 -0.13162 -0.0138891 -0.116641834 0.3402093 -0.1846742 0.2321655
-0.04679206 -0.015201884 -0.6353075 0.1128964 0.0768947 0.18799323 0.31540775 -0.030672787
0.0023522913 0.2948905 -0.28221494 -0.03958381 0.22018877 -0.28018615 0.0615827 0.06766471
-0.08503283 0.09125177 0.21253279 -0.5340214 -0.6824043 -0.007819491 0.030312214 0.054147482
0.12416526 -0.4510592 0.73988575 0.08796755 -0.19830617 0.022254834 -0.031828545 -0.38083437
00000000: 1a4c 853d 4033 0a3e 8f60 423e d266 1cbf
00000010: 5056 293e 8101 31bd 4d0c 223d 5987 c13d
00000020: c11b 083e 065b 36bf c70a 02bf 73fa 943d
00000030: aac7 813c 7a4c b93e e598 eb3e c011 1d3d
00000040: b233 273f 3914 fb3e 9d5d 87bd 5850 38bd
00000050: 3855 a6be b761 9f3e 802a 7d3d 38b6 da3d
00000060: 9793 06be 41a3 bebc 188a 0abe fdbc 513e
00000070: fede 06be fb58 c9be 73a8 81bc fa9f a13e
00000080: 602c 343c 4f56 bfbe 7703 073f 3a25 403d
00000090: 4eb2 8dbd b864 273e b0d4 84bd fe86 a43e
000000a0: 725d 1cbe 1728 263e e284 8fbd c050 ae3e
000000b0: b6c1 5e3e ef7b 46be 5fff 173e 9781 773e
000000c0: 83df a03d 8c01 a8ba bbf4 b6bd cb5f a2be
000000d0: cb01 423f dda7 2cbe 783b 0cbe d05b a23e
000000e0: 4a53 20bd 991f e8bd 89f2 63be 3b8b 143e
000000f0: a6f9 573d 462b e03d 485d de3d c7d5 933e
00000100: 0b93 d53d f66e b93c 599c 39be 2b7c 343e
00000110: 6365 243e 3579 003e d610 1fbf 6db9 0a3d
00000120: 4655 46be 5608 283e e1c5 96bd 79b1 573e
00000130: d9ec bcbe ad26 fb3d ac89 3abd 91b4 673e
00000140: 8dfd 333e f092 1fbf dea2 cdbd 8ed8 573e
00000150: bea0 1ebd 5acf 073e 8d70 d73d 6f42 12bf
00000160: e680 0c3f 985e 3d3e f29f 843d 13ed 3f3e
00000170: adc5 603e 5dc3 db3b 3cf1 c53e 5be8 9b3e
00000180: cd76 983c eeba 17bd e44f 12be d066 0d3f
00000190: 0aed 17be f36a 2cbe 8291 9bbd ff78 1d3e
000001a0: 67a9 ae3d 73b2 4a3e 04ee 15be e95d 2dbd
000001b0: 9066 efbd ff3b a33e 24e5 08be c035 7bbd
000001c0: 8c28 22bf af79 b0bd e30d 41be 0d9f 9e3c
000001d0: 7856 c3bd 0e96 4cbc 8c56 21bd 5976 1ebe
000001e0: ce6b 98bb c57b ab3e b9dc 853e 8008 04bf
000001f0: 8ea0 b1bc d930 2d3f 1d6f 2bbd 9a77 cb3d
00000200: ba6d f2be 4a14 a6bd e6f5 843e 43ea b5bd
00000210: ed01 e5bd 3f8a 773e 9325 a1bd fe59 ed3d
00000220: f9e9 09bf d63a a13d 0b7f d6bc ae10 02be
00000230: 5c7d f5bd 1ebc 5e3d 369e dfbc 0c3d c9be
00000240: 9cf4 4cbd 3b70 87be 5208 afbe 5720 e73d
00000250: d686 6c3e 9420 16be 6274 773e 0595 12be
00000260: 2e07 77bd decf b73d d170 2d3f b174 a83c
00000270: 0b89 483e 9fad 053e 1827 6f3d 7634 8d3d
00000280: a676 3b3f 599e 163e 7de3 9ebd 3b71 613e
00000290: b77b 68bd c78b cd3b 58ff e5b9 7e76 a43e
000002a0: bcc0 ebbd dd32 4fbd d086 d7be 895b 30be
000002b0: 5c42 923e cbfb 48be 8949 573c f3d9 de3e
000002c0: 6014 a33e 5bf9 a2be dd9f dd3d e5bb 1a3f
000002d0: 5728 e3bd 1d16 0cbe 1cf7 a8be 9d65 923e
000002e0: 4fee f53d 0764 5ebe 4e73 4ebd ee42 ffbc
000002f0: db16 89be 857d dd3e 8115 24bc 698e 11be
00000300: 3ad2 61bd e877 ae3e e3f4 5f3e 7ca8 73bc
00000310: bfef 193e 7882 a03d f2fa 78be 276f 60be
00000320: 4fea 093d 1b57 7ebe 5713 f4bd 8a3a e43d
00000330: d8fb db3d 4fa9 823e 69c7 dc3e 7d79 a4bd
00000340: 8863 5b3e ca97 ae3e a933 c5bd bec7 0d3e
00000350: d3d3 96bc d83c 273e 820f 86be c446 983e
00000360: 87c6 e93c 9b39 a23e 65c7 06be 1c8f 63bc
00000370: eae1 eebd ea2f ae3e 3c1b 3dbe cbbc 6d3e
00000380: 08a9 3fbd 5311 79bc 83a3 22bf 3a36 e73d
00000390: f87a 9d3d 4c81 403e 207d a13e 7f45 fbbc
000003a0: e628 1a3b e3fb 963e 7a7e 90be a222 22bd
000003b0: 2a79 613e 8f74 8fbe 243e 7c3d cc93 8a3d
000003c0: b125 aebd 35e2 ba3d 32a2 593e a0b5 08bf
000003d0: 0cb2 2ebf 531d 00bc 5251 f83c c0c9 5d3d
000003e0: 5b4a fe3d 3bf1 e6be 2769 3d3f 5528 b43d
000003f0: c610 4bbe c54f b63c a65e 02bd b9fc c2be

weight f4 [256]
1.0922153 1.4391408 1.072698 1.0533948 1.0603863 1.1444336 0.9554737 1.0432031
0.65968204 1.0588896 0.84339 0.87236005 1.1207107 1.4661607 1.2356435 1.156731
1.0529047 0.7987387 0.94663686 0.97810256 0.71386814 0.92826277 1.1071556 1.0392472
1.0304679 1.0999871 0.88174284 0.7437669 1.2194641 0.95579416 1.1154392 1.0413824
1.175881 1.0266825 0.92214805 0.9177596 1.0043108 1.0518365 1.1233537 0.88250047
1.158398 1.2946259 1.1633447 0.85095847 1.1227732 1.1250212 0.7267348 1.0442965
0.8761553 0.9485593 1.036312 0.92201304 1.4693836 0.9690045 1.3902242 1.1830997
1.0286697 1.0078483 0.99132645 1.1863217 1.0868174 1.1324857 1.1540549 0.97576874
1.0229422 1.2480156 0.8134611 0.828085 1.1726058 1.058796 0.89972293 1.0548812
0.9231609 0.82611215 1.0639067 1.1231109 1.2299066 1.0495018 0.8442244 0.72363365
1.280385 1.0918337 0.7719473 1.0127487 0.989197 1.2363564 0.7797062 1.0505258
0.8971742 0.79806477 1.323763 1.0040431 0.93650705 1.1377834 0.9927391 1.045901
1.109354 0.91112363 0.961262 0.93027806 1.002881 0.9118638 1.0672809 0.69121003
0.98365825 0.91343147 0.9493205 1.0583721 1.0635908 1.068279 0.7471112 0.84732443
0.9054957 1.1662457 1.1348082 1.4256663 1.2144297 0.95634043 1.1290237 0.79384243
0.72724307 0.91969174 0.83455783 0.84030706 0.9122247 0.67992836 0.92593056 1.1351708
1.2451036 0.8447036 1.0916177 0.9379992 0.965239 1.2522665 1.2546325 0.94863063
0.9053548 1.4184598 1.153965 1.0211642 0.90908897 1.0071423 1.0133775 1.12883
1.4712204 1.3267168 1.06699 1.2275566 0.9306302 1.0742823 1.1737559 1.1183037
1.4433197 1.179034 0.943681 1.0439056 1.330988 1.0817462 0.914359 0.9941196
1.2218211 1.2413554 0.93767023 1.1621537 0.9238478 1.1788362 1.1204847 1.1464752
0.80695003 1.0534612 1.0615962 1.1393657 1.0519967 0.93348783 0.9367453 0.9551883
0.99703276 1.5446805 0.98461556 0.97094065 1.2014459 1.3320491 1.2867607 1.2137005
1.2360379 0.9252321 1.1227338 1.073771 1.1529 0.9309045 1.1306394 1.2512344
1.058061 0.78223073 0.8453045 0.7963211 0.97935814 0.65289164 1.0049411 0.74057746
0.86724293 0.92157984 0.96233624 0.6730215 0.81653064 0.98783576 1.0397261 0.8828349
0.7207052 0.9878432 0.84049773 1.038176 0.9632966 0.90386385 0.9643058 0.9554827
0.8249792 1.1272117 1.2082968 0.8232104 1.2695822 0.9568136 1.1235279 0.976533
1.0736241 0.8768107 0.96544546 0.7582257 0.7689631 1.0689864 0.83786315 0.7913093
0.93725073 1.1833994 0.88829076 0.74178517 1.1305499 1.0365853 1.0657207 0.75634587
0.84975743 0.7501947 1.0478946 1.061966 0.9114475 0.8130047 0.89368266 1.0292048
0.80236113 1.0009718 0.9745818 1.1314164 1.0587612 0.6585095 1.0043696 0.9553191
00000000: b6cd 8b3f c435 b83f 2b4e 893f a4d5 863f
00000010: bdba 873f cd7c 923f ed99 743f ae87 853f
00000020: ece0 283f b289 873f 68e8 573f fd52 5f3f
00000030: 7373 8f3f 27ab bb3f 9129 9e3f c30f 943f
00000040: 95c5 863f 247a 4c3f cb56 723f ee64 7a3f
00000050: 10c0 363f a1a2 6d3f 46b7 8d3f 0d06 853f
00000060: 5fe6 833f 61cc 8c3f e6b9 613f 8267 3e3f
00000070: 6617 9c3f edae 743f b6c6 8e3f 054c 853f
00000080: 4583 963f 556a 833f e511 6c3f 4bf2 6a3f
00000090: 428d 803f 94a2 863f 0eca 8f3f 8deb 613f
000000a0: 6346 943f 4db6 a53f 7be8 943f 6ad8 593f
000000b0: 08b7 8f3f b200 903f 4b0b 3a3f 82ab 853f
000000c0: b74b 603f c8d4 723f dfa5 843f 0c09 6c3f
000000d0: c314 bc3f ae10 783f def2 b13f d06f 973f
000000e0: 73ab 833f 2c01 813f 92c7 7d3f 64d9 973f
000000f0: d51c 8b3f 4bf5 903f 12b8 933f fbcb 793f
00000100: c5ef 823f fabe 9f3f fd3e 503f 61fd 533f
00000110: f217 963f a186 873f 3e54 663f 5906 873f
00000120: 4654 6c3f 167c 533f 182e 883f 19c2 8f3f
00000130: 946d 9d3f 1356 863f 171f 583f 0e40 393f
00000140: a8e3 a33f 35c1 8b3f 579e 453f c0a1 813f
00000150: 043c 7d3f ed40 9e3f d39a 473f a177 863f
00000160: 35ad 653f f94d 4c3f 1171 a93f 7c84 803f
00000170: edbe 6f3f e3a2 913f 2624 7e3f 15e0 853f
00000180: 50ff 8d3f 663f 693f 4415 763f b426 6e3f
00000190: 685e 803f e86f 693f a99c 883f 24f3 303f
000001a0: 07d1 7b3f a5d6 693f ab06 733f bd78 873f
000001b0: be23 883f 5ebd 883f ae42 3f3f 41ea 583f
000001c0: 91ce 673f 8a47 953f 6541 913f 3c7c b63f
000001d0: 6f72 9b3f bad2 743f d983 903f 4239 4b3f
000001e0: 9a2c 3a3f eb70 6b3f 95a5 553f 5d1e 573f
000001f0: 8f87 693f c90f 2e3f c909 6d3f 474d 913f
00000200: 8e5f 9f3f 7f3e 583f 21ba 8b3f b720 703f
00000210: e719 773f 454a a03f cc97 a03f 75d9 723f
00000220: 55c5 673f 1790 b53f 20b5 933f 82b5 823f
00000230: 0eba 683f 0aea 803f 5bb6 813f 807d 903f
00000240: f350 bc3f dbd1 a93f 2193 883f 9320 9d3f
00000250: c83d 6e3f 1582 893f a23d 963f 9324 8f3f
00000260: b3be b83f 96ea 963f 1495 713f b39e 853f
00000270: d15d aa3f a976 8a3f 6e13 6a3f 9f7e 7e3f
00000280: a264 9c3f bce4 9e3f 280b 703f 74c1 943f
00000290: 4a81 6c3f 1be4 963f 0b6c 8f3f b3bf 923f
000002a0: 4794 4e3f d1d7 863f 62e2 873f bcd6 913f
000002b0: d4a7 863f 0ff9 6e3f 8ace 6f3f 3887 743f
000002c0: 8a3d 7f3f 17b8 c53f c40f 7c3f 918f 783f
000002d0: fbc8 993f 9680 aa3f 93b4 a43f 8a5a 9b3f
000002e0: 7d36 9e3f 03dc 6c3f beb5 8f3f 5471 893f
000002f0: 3a92 933f c24f 6e3f cbb8 903f 7328 a03f
00000300: 8b6e 873f 4640 483f e065 583f b3db 4b3f
00000310: 37b7 7a3f e823 273f e9a1 803f 7c96 3d3f
00000320: a203 5e3f a8ec 6b3f ab5b 763f 234b 2c3f
00000330: 2708 513f cee2 7c3f bf15 853f 7801 623f
00000340: 2380 383f 4be3 7c3f dc2a 573f f3e2 843f
00000350: 9b9a 763f 9f63 673f bfdc 763f 849a 743f
00000360: d631 533f 7948 903f 78a9 9a3f ebbd 523f
00000370: ab81 a23f bcf1 743f c3cf 8f3f 11fe 793f
00000380: 846c 893f ab76 603f 6f27 773f 141b 423f
00000390: c4da 443f 8cd4 883f 337e 563f 3f93 4a3f
000003a0: aaef 6f3f a279 973f 0667 633f a2e5 3d3f
000003b0: dcb5 903f d4ae 843f 8969 883f e29f 413f
000003c0: b489 593f c30c 403f 6921 863f 80ee 873f
000003d0: a054 693f 1321 503f 63c8 643f fcbc 833f
000003e0: 8a67 4d3f d81f 803f 317e 793f 41d2 903f
000003f0: 7d85 873f 1494 283f 2f8f 803f cb8f 743f

bias f4 [256]
-0.018032534 0.17297602 -0.36145246 0.22207549 0.29478872 0.13127989 0.023770766 -0.14525579
-0.06911927 0.43623686 -0.1033868 0.18548134 0.123615354 0.0769638 0.1486032 -0.003400092
0.09394593 -0.026412742 0.44371548 0.119052745 -0.23208192 0.04121995 0.39208 -0.004503355
0.20265399 -0.08220407 -0.17039846 -0.42240992 0.10851851 0.10343136 0.3706727 0.0740537
0.09547632 0.051426236 -0.25632864 0.085067414 0.054551154 0.51360464 -0.029433684 0.072042406
-0.04493484 -0.04481422 -0.16920023 -0.004022208 -0.22807361 0.19311152 -0.41037402 -0.117661595
0.28014034 0.2595997 0.34783927 -0.30311713 0.22417746 0.1479165 0.00019949379 0.15696533
-0.090636484 -0.18467015 -0.2904938 0.08319935 0.31827262 0.1450395 0.20284946 0.41706753
0.22272535 0.49168605 -0.19924659 0.25065783 0.05382196 0.09438398 -0.0029359201 -0.008721249
-0.15879615 0.17885637 0.36973634 0.29774022 0.2739393 0.028572643 -0.009125767 0.08120392
0.26037723 0.17300701 -0.13681763 -0.26498348 -0.059002858 0.0067774765 0.078674234 -0.21656372
-0.08215304 -0.085815795 0.33462426 -0.115869366 0.20209973 0.20822467 0.1599947 0.25851825
0.24836801 0.23568524 -0.121188425 -0.1346563 -0.055776734 0.026947832 0.09737253 -0.11326902
0.27752045 0.18060203 0.24053766 0.2984208 0.35583606 0.22038226 0.13630158 0.3162381
0.094444595 0.12411695 0.06695543 0.22906664 0.16418831 -0.140913 0.21041867 -0.08940141
-0.18172209 0.028752511 0.043294985 0.13101421 0.30713654 0.030466948 -0.18848169 0.17645122
0.38738918 -0.24931446 0.19546868 -0.13175258 0.5068926 0.067204535 0.058292814 -0.3590982
0.43104967 0.76512635 0.12138377 -0.066287816 0.0028918362 0.018732542 -0.19144678 0.5288953
0.11451584 0.2509206 0.29152355 0.18431133 0.19832844 0.047543783 -0.16325529 0.09339278
0.13452566 -0.016732227 0.25790346 -0.008695856 0.16614878 0.31433472 -0.29320845 0.4714652
0.30452555 0.34635705 0.32723418 -0.01897948 0.47321817 0.052103307 0.039020777 0.42215315
-0.15024115 0.17822056 0.4200234 -0.06101114 -0.062142182 0.09141209 0.16259913 0.051339023
0.0640643 0.5064328 0.21100432 0.2722981 0.40090162 0.12430815 0.38723308 0.020990992
-0.051748123 0.033033032 0.0077941795 -0.4246017 0.44888687 -0.15537456 0.15577437 0.045506455
0.07132084 0.31788608 0.17285413 -0.31231332 -0.29102823 -0.22676522 0.071741305 -0.5335438
0.16081795 -0.17288876 0.20918031 -0.020198472 0.34950802 0.20711318 0.13501604 0.14731266
0.31831986 0.03794484 0.26030743 0.4467732 -0.010955552 0.06820305 0.21228492 -0.13051091
-0.44502363 0.14024268 0.3272508 0.39299527 -0.06977618 -0.021334704 0.067075156 -0.03143355
0.44576153 -0.03571658 0.14618094 0.1392338 0.12942876 -0.22490531 0.07079417 -0.017911328
-0.3163426 -0.15157402 -0.024804818 -0.3886292 0.0100825 -0.048436835 0.3517594 0.31694415
-0.12186017 -0.42577347 0.124382064 0.39368778 -0.013061931 5.1244086e-05 0.17568128 0.10419457
-0.18199384 0.23635344 0.030635076 0.16954389 -0.10665912 -0.16752806 0.051151663 -0.05934743
00000000: f7b8 93bc a020 313e 4c10 b9be c267 633e
00000010: 8cee 963e 3c6e 063e e9ba c23c efbd 14be
00000020: 678e 8dbd 705a df3e 75bc d3bd d2ee 3d3e
00000030: 0c2a fd3d 329f 9d3d 702b 183e 14d4 5ebb
00000040: b966 c03d 895f d8bc ad2e e33e edd1 f33d
00000050: e2a6 6dbe 40d6 283d b6be c83e e190 93bb
00000060: 8784 4f3e 9c5a a8bd ef7c 2ebe 1d46 d8be
00000070: f43e de3d d2d3 d33d d0c8 bd3e 77a9 973d
00000080: 1789 c33d 51a4 523d 823d 83be d337 ae3d
00000090: 0871 5f3d 987b 033f e91e f1bc f88a 933d
000000a0: 980d 38bd 1e8f 37bd d342 2dbe bacc 83bb
000000b0: 218c 69be 07bf 453e 8b1c d2be 90f8 f0bd
000000c0: 8e6e 8f3e 40ea 843e fd17 b23e 2b32 9bbe
000000d0: c78e 653e 6c77 173e 352f 5139 85bb 203e
000000e0: 9f9f b9bd 2c1a 3dbe 9abb 94be 6c64 aa3d
000000f0: a1f4 a23e 3c85 143e c5b7 4f3e e089 d53e
00000100: 1d12 643e 46be fb3e 4c07 4cbe 3956 803e
00000110: 6a74 5c3d 634c c13d 9168 40bb 92e3 0ebc
00000120: 759b 22be 2026 373e 154e bd3e 6871 983e
00000130: c641 8c3e 2d11 ea3c 3e84 15bc 3e4e a63d
00000140: 2a50 853e c028 313e ec19 0cbe eaab 87be
00000150: fbac 71bd 9815 de3b f51f a13d e1c2 5dbe
00000160: da3f a8bd 31c0 afbd df53 ab3e eb4c edbd
00000170: 3bf3 4e3e d938 553e a7d5 233e 815c 843e
00000180: 2f54 7e3e 7957 713e a331 f8bd 57e3 09be
00000190: 2576 64bd b3c1 dc3c 406b c73d 97f9 e7bd
000001a0: 2917 8e3e bdef 383e 814f 763e 9cca 983e
000001b0: 2530 b63e e3ab 613e a492 0b3e f6e9 a13e
000001c0: 2b6c c13d 0731 fe3d ee1f 893d 7290 6a3e
000001d0: fb20 283e 7f4b 10be fe77 573e 1618 b7bd
000001e0: 5b15 3abe 638a eb3c 1556 313d 9728 063e
000001f0: 0041 9d3e d295 f93c 5801 41be a1af 343e
00000200: e057 c63e 4a4c 7fbe f128 483e 26ea 06be
00000210: b7c3 013f 88a2 893d 72c4 6e3d b8db b7be
00000220: 8bb2 dc3e 52df 433f 0e98 f83d e8c1 87bd
00000230: f684 3d3b fd74 993c a00a 44be af65 073f
00000240: 4887 ea3d aa78 803e 9342 953e 1cbc 3c3e
00000250: 9c16 4b3e 45bd 423d 652c 27be b744 bf3d
00000260: 18c1 093e 0612 89bc ec0b 843e 1079 0ebc
00000270: e822 2a3e 7bf0 a03e 6b1f 96be e363 f13e
00000280: c6ea 9b3e b655 b13e 3d8b a73e db7a 9bbc
00000290: a749 f23e 476a 553d 40d4 1f3d 7524 d83e
000002a0: d1d8 19be 737f 363e 4f0d d73e d1e6 79bd
000002b0: cd88 7ebd 4336 bb3d 6380 263e de48 523d
000002c0: 2534 833d 94a5 013f 8411 583e a86a 8b3e
000002d0: fa42 cd3e 4595 fe3d 6a43 c63e 4df5 ab3c
000002e0: d7f5 53bd a54d 073d 5166 ff3b 6565 d9be
000002f0: 80d4 e53e 821a 1fbe 5183 1f3e fa64 3a3d
00000300: a910 923d f7c1 a23e ac00 313e 88e7 9fbe
00000310: a701 95be 2435 68be 1bed 923d 5496 08bf
00000320: 76ad 243e c009 31be 5d33 563e 4477 a5bc
00000330: b7f2 b23e 7a15 543e a541 0a3e 21d9 163e
00000340: d2fa a23e 0c6c 1b3d 0447 853e 75bf e43e
00000350: ea7e 33bc 0aae 8b3d 3861 593e a7a4 05be
00000360: 23da e3be c79b 0f3e 6b8d a73e ad36 c93e
00000370: d0e6 8ebd 1ec6 aebc b35e 893d 77c0 00bd
00000380: db3a e43e 8c4b 12bd 75b0 153e 4e93 0e3e
00000390: f988 043e 944d 66be 89fc 903d c7ba 92bc
000003a0: a8f7 a1be 3836 1bbe 7933 cbbc 68fa c6be
000003b0: 1231 253c b465 46bd cf19 b43e 8146 a23e
000003c0: d391 f9bd fbfe d9be 06bc fe3d 7291 c93e
000003d0: b601 56bc ebee 5638 cbe5 333e f663 d53d
000003e0: 985c 3abe a306 723e 69f6 fa3c ea9c 2d3e
000003f0: 1970 dabd 7a8c 2bbe 6884 513d 4a16 73bd

running_mean f4 [256]
0.43306595 0.4116077 2.879017 -0.23595865 -2.1473176 0.7546385 0.63166416 1.2459114
-0.3060491 0.4008799 0.95988244 -0.5462893 -0.28521377 0.70918477 0.4389711 2.0156853
-0.2842729 0.03089138 -0.2673595 -1.6961014 2.8663692 -0.48403797 0.17915289 -1.8308511
-1.615958 1.3145626 2.1966467 1.0315667 -1.8667908 3.1221993 -1.7916199 -0.71150917
0.9493379 -1.9742707 2.5719607 0.77451664 2.11254 -0.2236655 2.0630352 -1.7656832
-0.53957015 0.64484304 -2.2421153 1.8243937 0.29434136 -1.8613573 2.0277364 1.5878767
-0.94170535 -1.0772343 -0.22371183 2.2742467 1.6671194 -0.26355904 0.74639845 -1.1289634
1.5517493 1.0982761 1.2661061 3.0525682 -0.1456687 -1.0070636 -1.0595418 -0.6743061
-1.9610162 0.08689015 1.5194358 2.3131552 0.86253625 -1.0527477 -1.9009123 0.31548324
0.5820497 0.8710938 -1.5380394 -0.9568772 -1.3460274 -0.15292342 1.3597919 -1.7699984
-1.8759385 -0.5003543 1.9539692 -0.8931731 -0.19376254 -0.5856953 0.095360145 0.30008262
-0.4196516 1.6919003 0.68057704 -0.17304458 0.13483426 -0.36992902 0.38038456 1.3590833
-0.16832314 0.102627724 -0.38601372 2.0696402 1.2003763 1.502677 0.15515587 -0.37865147
0.29180506 0.9629616 0.70946044 -0.8653895 0.0019992166 -0.6390989 -0.06672125 0.25123873
-0.6922952 -1.1910821 1.6293726 0.69856715 -0.5817627 1.6430677 -0.73591894 -1.1256753
2.090572 0.40825677 0.31328535 0.4939623 -1.2852877 0.9033271 0.35787413 -0.8291202
1.3294145 3.1778634 0.41698644 -3.4692323 4.711959 -4.721632 1.5883827 1.8444837
4.367993 2.3109698 0.40608326 0.7002688 -1.7126027 3.974361 1.403214 4.494591
1.9307228 -5.2671394 2.3029497 1.4189069 1.3189306 -4.296882 1.6291093 -4.795528
-1.1874405 -1.4800142 -0.21567765 -1.8029374 -3.7517285 1.907016 3.233053 4.6067333
2.020683 4.0505786 -0.13612017 -2.1096203 3.384818 -4.220567 0.37186727 5.3885283
-0.84820384 -4.067947 3.2804139 -4.335287 -1.5800406 -1.2237502 -1.9135585 -0.82102364
-2.2415586 0.8225196 -2.192557 -2.3409393 1.683876 -1.2928965 1.9377221 1.0538363
-1.8678199 -1.327961 -2.1659346 -1.3232538 1.865484 2.71158 -2.446237 -2.5978084
-2.0245974 0.6512459 -0.58055395 0.7571885 0.8682296 0.34730873 -1.4227198 -1.6813736
-0.791217 -0.7886533 0.47904664 -0.84644884 -1.6137602 0.35458136 -0.8220964 -1.0594
-0.10044262 1.1206423 -0.3748753 -0.48761868 -0.45586962 -1.1847837 0.36206797 2.8015108
0.38084003 -1.7827607 -0.12515421 -0.6973773 0.115287505 -0.44390425 0.16773868 1.4169935
-0.21428949 -2.4597352 -0.8949323 -0.8605718 -0.5013832 0.20315535 0.48593354 1.2845148
-0.55956006 -0.24892072 0.98579633 0.2457492 0.16426311 -0.64774394 0.52469254 1.2341781
-0.54053843 1.1727597 -1.5882903 -0.11007924 -1.509516 2.022159 -0.50273484 0.8314993
0.33406124 -1.1464248 -2.280899 -1.8591583 0.008625844 -0.537254 0.5816122 -0.117165126
00000000: d2ba dd3e 3fbe d23e d141 3840 259f 71be
00000010: a76d 09c0 fd2f 413f beb4 213f 067a 9f3f
00000020: 78b2 9cbe 2140 cd3e dbba 753f 9ed9 0bbf
00000030: 8a07 92be 228d 353f d2c0 e03e fd00 0140
00000040: 388c 91be eb0f fd3c 58e3 88be da19 d9bf
00000050: 9872 3740 d3d3 f7be db73 373e 5459 eabf
00000060: b6d7 cebf 9643 a83f dc95 0c40 610a 843f
00000070: 00f3 eebf 1dd2 4740 cd53 e5bf 7725 36bf
00000080: cf07 733f e7b4 fcbf 019b 2440 b946 463f
00000090: db33 0740 9208 65be c508 0440 e801 e2bf
000000a0: 4521 0abf 6f14 253f d17e 0fc0 bc85 e93f
000000b0: e9b3 963e f540 eebf 6fc6 0140 8b3f cb3f
000000c0: 9a13 71bf d0e2 89bf b714 65be 428d 1140
000000d0: 2b64 d53f 36f1 86be f813 3f3f df81 90bf
000000e0: b99f c63f 5094 8c3f c40f a23f 475d 4340
000000f0: 2d2a 15be 76e7 80bf 119f 87bf 539f 2cbf
00000100: 9402 fbbf 77f3 b13d df7c c23f bc0a 1440
00000110: 2dcf 5c3f 70c0 86bf 1851 f3bf 0587 a13e
00000120: 3601 153f 0100 5f3f 7ade c4bf e7f5 74bf
00000130: a04a acbf f597 1cbe a90d ae3f 4f8f e2bf
00000140: c11e f0bf 3817 00bf aa1b fa3f fea6 64bf
00000150: b069 46be 21f0 15bf 2e4c c33d 6ea4 993e
00000160: 93dc d6be 3090 d83f 4c3a 2e3f 9932 31be
00000170: fe11 0a3e 5667 bdbe c4c1 c23e 71f6 ad3f
00000180: e75c 2cbe 7c2e d23d 97a3 c5be fc74 0440
00000190: eea5 993f b857 c03f 2ee1 1e3e 9bde c1be
000001a0: 7967 953e a784 763f 339f 353f 2b8a 5dbf
000001b0: 4a05 033b fc9b 23bf 27a5 88bd 5da2 803e
000001c0: 423a 31bf 6175 98bf 488f d03f 4cd5 323f
000001d0: 66ee 14bf 0b50 d23f 2f65 3cbf 2116 90bf
000001e0: efcb 0540 0807 d13e f066 a03e a0e8 fc3e
000001f0: 4f84 a4bf 7240 673f 473b b73e 3941 54bf
00000200: 412a aa3f 1d62 4b40 3f7f d53e e707 5ec0
00000210: 5ec8 9640 9c17 97c0 2050 cb3f 0b18 ec3f
00000220: 99c6 8b40 eee6 1340 25ea cf3e d144 333f
00000230: 9136 dbbf ee5b 7e40 849c b33f b1d3 8f40
00000240: ed21 f73f 688c a8c0 8763 1340 be9e b53f
00000250: b8d2 a83f 0f80 89c0 a786 d03f f774 99c0
00000260: 0dfe 97bf 1b71 bdbf 9ada 5cbe a7c6 e6bf
00000270: 521c 70c0 1a19 f43f 57ea 4e40 5c6a 9340
00000280: df52 0140 579e 8140 1663 0bbe 0504 07c0
00000290: dca0 5840 e30e 87c0 6365 be3e d36e ac40
000002a0: e323 59bf 9f2c 82c0 4df2 5140 acba 8ac0
000002b0: c53e cabf d9a3 9cbf 7cef f4bf 9b2e 52bf
000002c0: b275 0fc0 a590 523f db52 0cc0 f3d1 15c0
000002d0: 4089 d73f a27d a5bf 4707 f83f 1ce4 863f
000002e0: b914 efbf a0fa a9bf ac9e 0ac0 6160 a9bf
000002f0: 2ec8 ee3f 878a 2d40 268f 1cc0 7e42 26c0
00000300: 0193 01c0 0db8 263f 2f9f 14bf 1bd7 413f
00000310: 4c44 5e3f 73d2 b13e af1b b6bf 4037 d7bf
00000320: 338d 4abf 2fe5 49bf 9a45 f53e dfb0 58bf
00000330: b28f cebf b08b b53e e974 52bf 6b9a 87bf
00000340: dcb4 cdbd 3571 8f3f a8ef bfbe 28a9 f9be
00000350: be67 e9be fea6 97bf f960 b93e f44b 3340
00000360: 77fd c23e 8131 e4bf 6d28 00be 5287 32bf
00000370: db1b ec3d 6b47 e3be b0c3 2b3e 0b60 b53f
00000380: b46e 5bbe 4d6c 1dc0 491a 65bf 6f4e 5cbf
00000390: a65a 00bf f507 503e 48cc f83e fb6a a43f
000003a0: 543f 0fbf 13e5 7ebe 265d 7c3f aea5 7b3e
000003b0: 9734 283e 8cd2 25bf 4052 063f 8cf9 9d3f
000003c0: ba60 0abf fd1c 963f 194d cbbf 3971 e1bd
000003d0: d237 c1bf 0e6b 0140 3bb3 00bf 23dd 543f
000003e0: 130a ab3e 0cbe 92bf 40fa 11c0 e6f8 edbf
000003f0: 6953 0d3c 7a89 09bf 8ae4 143f 45f4 efbd

running_var f4 [256]
0.16539432 0.21807057 1.9200083 0.06349993 1.0874004 0.20796649 0.15737769 0.48548868
0.054609522 0.16704324 0.19759654 0.21821214 0.18030156 0.3220096 0.18307725 0.90165883
0.13955916 0.06609299 0.1161681 0.7205966 2.1414056 0.08783805 0.09871147 0.73762506
0.61456853 0.53851146 1.0796984 0.3271172 0.7036279 2.4516933 0.77886873 0.226313
0.2853675 0.91866374 1.5623412 0.18693548 1.0178708 0.15803215 0.9730947 0.9221665
0.18163134 0.12481961 1.1032801 0.78025115 0.109603845 0.8146538 0.8694977 0.9280002
0.40015835 0.37290245 0.12560101 1.3263621 0.6601532 0.08216999 0.33823654 0.48487252
0.62914926 0.29502907 0.5081538 2.0705953 0.14318147 0.22082317 0.35044605 0.18145102
0.649524 0.110487126 0.3573201 0.81093425 0.11360457 0.23839614 0.64028597 0.11090294
0.12183252 0.15525992 0.422841 0.23046473 0.38363624 0.059431557 0.31591618 0.5644196
0.54820657 0.08728818 0.64173144 0.14648014 0.09424842 0.11584304 0.07926632 0.06402824
0.06671524 0.43719 0.22716424 0.10668822 0.068679035 0.20269176 0.07626628 0.37865233
0.055378195 0.08342718 0.13389875 0.6499664 0.25756946 0.37823573 0.079351835 0.044372596
0.11974826 0.1931477 0.15727387 0.18951698 0.13755178 0.15653883 0.09097863 0.051584896
0.22442016 0.27648348 0.3822205 0.2941745 0.123970784 0.50457305 0.13780592 0.21291114
0.7592153 0.1005762 0.11689029 0.16212797 0.31094626 0.12461072 0.10634106 0.20916739
0.6950951 8.03605 0.8335463 7.172117 11.557733 11.313338 1.0518974 2.054046
11.270073 2.216058 0.25590163 0.27752647 2.7153497 11.282791 0.94733316 11.46474
1.6148626 14.339203 2.5393932 0.9769617 0.84169656 9.9552145 1.529045 12.104068
0.5932031 0.86014396 0.84651214 1.254921 6.853315 1.4017525 6.6123805 12.985939
1.7137077 10.020697 0.24690309 2.353038 6.8108473 9.806669 0.22151928 15.81035
0.7560645 9.644883 5.897478 10.638392 0.96944755 1.2763299 2.6456618 1.2652065
2.747116 0.25811464 2.8423266 2.8881047 1.3026168 0.7267052 1.4294596 0.58527327
1.3831558 0.94887626 2.0829616 0.902671 1.4491762 6.1281123 2.7715883 2.901988
0.7556354 0.21959855 0.13198411 0.23989393 0.27197814 0.08036509 0.39685738 0.4522511
0.37667835 0.18392022 0.11025686 0.23688117 0.7750306 0.09574976 0.15895244 0.403464
0.09038337 0.31483072 0.2859204 0.18250214 0.15690483 0.37929308 0.07834676 1.7201273
0.123333715 0.64012104 0.26035523 0.33609658 0.1681817 0.09321131 0.18344338 0.44645375
0.25350738 1.0400597 0.19928098 0.28996888 0.32955024 0.10496078 0.24378031 0.4097985
0.12488216 0.25300604 0.5778724 0.09591473 0.1959428 0.26867417 0.24744014 0.4424169
0.21796902 0.26825544 0.5137637 0.19926159 0.4742345 0.97979134 0.18556957 0.2549249
0.17155333 0.3187069 1.3936282 0.9154725 0.15330268 0.21531647 0.12174871 0.17801523
00000000: 215d 293e e44d 5f3e d5c2 f53f 400c 823d
00000010: f02f 8b3f 2bf5 543e 9e27 213e f991 f83e
00000020: 3cae 5f3d 620d 2b3e bf56 4a3e 0173 5f3e
00000030: f9a0 383e 71de a43e 9a78 3b3e 1dd3 663f
00000040: 99e8 0e3e c35b 873d 8ae9 ed3d 0579 383f
00000050: ca0c 0940 70e4 b33d 3d29 ca3d ffd4 3c3f
00000060: 5d54 1d3f e3db 093f 8f33 8a3f e87b a73e
00000070: f520 343f 8be8 1c40 f163 473f 98be 673e
00000080: b01b 923e 8c2d 6b3f ccfa c73f 046c 3f3e
00000090: 9749 823f 2ed3 213e bc1c 793f 1b13 6c3f
000000a0: 91fd 393e 6ca1 ff3d 4838 8d3f 8abe 473f
000000b0: fb77 e03d 278d 503f 6797 5e3f 6c91 6d3f
000000c0: 8ee1 cc3e 12ed be3e 8d9d 003e 3cc6 a93f
000000d0: cdff 283f bd48 a83d 572d ad3e 3641 f83e
000000e0: ed0f 213f 0d0e 973e 5e16 023f a284 0440
000000f0: 2a9e 123e 781f 623e aa6d b33e 4cce 393e
00000100: 3447 263f 1347 e23d a9f2 b63e 6399 4f3f
00000110: 83a9 e83d 1e1e 743e c8e9 233f 1521 e33d
00000120: 5483 f93d 75fc 1e3e 9e7e d83e f2fe 6b3e
00000130: f86b c43e 816e 733d c4bf a13e ce7d 103f
00000140: 4457 0c3f 25c4 b23d 8348 243f e4fe 153e
00000150: 5105 c13d 1e3f ed3d 6156 a23d 3d21 833d
00000160: 00a2 883d 5ed7 df3e be9d 683e 5a7f da3d
00000170: 98a7 8c3d 6e8e 4f3e 7f31 9c3d b8de c13e
00000180: 3fd4 623d dfdb aa3d c11c 093e 3364 263f
00000190: 25e0 833e 1da8 c13e 3783 a23d 0ac0 353d
000001a0: 933e f53d 83c8 453e 670c 213e bd10 423e
000001b0: 60da 0c3e b74b 203e 0153 ba3d af4a 533d
000001c0: 66ce 653e 3e8f 8d3e 68b2 c33e 0a9e 963e
000001d0: 65e4 fd3d b32b 013f ff1c 0d3e 6105 5a3e
000001e0: ef5b 423f e5fa cd3d 2d64 ef3d e004 263e
000001f0: 5934 9f3e e833 ff3d 57c9 d93d fa2f 563e
00000200: c1f1 313f a993 0041 4a63 553f fc81 e540
00000210: 79ec 3841 6f03 3541 93a4 863f 7d75 0340
00000220: 3852 3441 e5d3 0d40 8a05 833e f317 8e3e
00000230: 4ac8 2d40 5086 3441 6d84 723f 936f 3741
00000240: d1b3 ce3f 606d 6541 6b85 2240 291a 7a3f
00000250: 6d79 573f 8f48 1f41 bfb7 c33f 43aa 4141
00000260: 29dc 173f 6532 5c3f 05b5 583f 40a1 a03f
00000270: 5b4e db40 a06c b33f 9f98 d340 68c6 4f41
00000280: c65a db3f c654 2041 2ad4 7c3e 2d98 1640
00000290: 76f2 d940 1ee8 1c41 f3d5 623e 32f7 7c41
000002a0: 718d 413f 7151 1a41 24b8 bc40 db36 2a41
000002b0: b72d 783f c75e a33f 8652 2940 49f2 a13f
000002c0: c0d0 2f40 9a27 843e aee8 3540 b5d6 3840
000002d0: 26bc a63f 5a09 3a3f 88f8 b63f 78d4 153f
000002e0: 400b b13f 8ee9 723f 3e4f 0540 7215 673f
000002f0: 9b7e b93f 7f19 c440 b461 3140 2cba 3940
00000300: 5271 413f 71de 603e d826 073e c1a6 753e
00000310: b840 8b3e 7496 a43d e430 cb3e 758d e73e
00000320: fcdb c03e 9555 3c3e 59ce e13d fa90 723e
00000330: 6868 463f 7318 c43d 6ec4 223e d592 ce3e
00000340: eb1a b93d 7e31 a13e 2964 923e d7e1 3a3e
00000350: a9ab 203e b432 c23e 4474 a03d 222d dc3f
00000360: 6396 fc3d f9de 233f 484d 853e da14 ac3e
00000370: d337 2c3e 92e5 be3d 95d8 3b3e 9695 e43e
00000380: b8cb 813e ad20 853f 5010 4c3e cd76 943e
00000390: cfba a83e adf5 d63d 8ca1 793e 1cd1 d13e
000003a0: 38c2 ff3d 028a 813e 72ef 133f f16e c43d
000003b0: 3ba5 483e a98f 893e f360 7d3e 7884 e23e
000003c0: 4533 5f3e c758 893e 0586 033f 3b0b 4c3e
000003d0: ddce f23e 9bd3 7a3f f305 3e3e 8485 823e
000003e0: adab 2f3e 8d2d a33e 6962 b23f 685c 6a3f
000003f0: 61fb 1c3e ec7b 5c3e 6357 f93d a049 363e
