gin_model_final.pth (torch, 806894 bytes, 19 tensors)

conv1.nn.0.weight f4 [128, 6]
000000 a4 3a ed a8 a8 e2 4e a4 be 88 00 00 d9 96 00 00
       -2.6337717e-14 -4.4861115e-17 4.9054e-41 5.4114e-41
000010 13 8e 00 00 fa 69 49 a5 a9 08 00 80 34 8a 00 00
       5.0967e-41 -1.7469877e-16 -3.107e-42 4.9578e-41
000020 7a 8b 00 80 ef 88 00 80 f6 9b 00 80 fc 89 00 80
       -5.0035e-41 -4.9123e-41 -5.5948e-41 -4.95e-41
000030 62 c8 8f b7 cf 45 ed bb 49 f5 0d b4 e4 85 05 b8
       -1.7140239e-05 -0.007240988 -1.3220883e-07 -3.1834366e-05
000040 59 a2 1d 31 db ba a4 ba 96 07 c3 bb 12 fc 9c bb
       2.293879e-09 -0.0012567894 -0.005951832 -0.0047907913
000050 ed 11 ef bb b1 b2 b7 bb 3d 42 e1 bb 7c ff 57 b9
       -0.007295838 -0.0056060185 -0.0068743513 -0.00020599173
000060 98 0a ce 3d 3f 32 20 3e 83 18 8c 3d 5f aa 2b 3d
       0.10060614 0.15644167 0.06840613 0.041910525
000070 26 2e b4 be 52 c5 8e be 83 fd c1 b9 f5 a2 87 b6
       -0.35191458 -0.27884918 -0.0003700071 -4.042284e-06
000080 1f 87 8d 35 34 a0 b8 34 e4 89 00 80 8e fd ce 36
       1.0544644e-06 3.4389234e-07 -4.9466e-41 6.168796e-06
000090 06 19 f6 3d 5e 26 e6 bd 20 15 80 be 70 2e 1b be
       0.120164916 -0.11237787 -0.25016117 -0.15154433
0000a0 94 aa 3e 3e 70 16 33 3e 79 dd 3f 3d 8e 9b 85 3e
       0.18619758 0.17489028 0.046842072 0.2609524
0000b0 b0 61 17 3e 2d 88 77 3d 50 76 46 be 5c ed 95 be
       0.14783359 0.0604326 -0.1938107 -0.29282653
0000c0 f8 3b b7 bb 4b 49 84 ba a2 2a 8b 39 cb ef 38 b9
       -0.0055918656 -0.0010092644 0.0002654391 -0.00017636937
0000d0 2e 88 8c 9b 28 a2 1e ba d6 ec d9 b8 cb 7c 1a b8
       -2.324906e-22 -0.0006051385 -0.000103914805 -3.6832684e-05
0000e0 65 c2 0a b3 3d a3 3d 36 0a 89 00 00 09 27 e8 b7
       -3.230743e-08 2.8258212e-06 4.916e-41 -2.7674732e-05
0000f0 86 20 e6 ba fe 59 57 bc 93 08 a4 bb 96 75 c8 3a
       -0.00175573 -0.013144014 -0.005005905 0.0015293832
000100 3d 47 2d a5 62 78 1e bc f6 f8 86 3c 80 12 c7 3e
       -1.5029495e-16 -0.009672256 0.016476136 0.38881302
000110 cb 76 cf 3d 35 d8 c6 3d 13 f1 c2 bd 44 99 ac be
       0.1013008 0.09709207 -0.095186375 -0.33710682
000120 cd e5 08 3e 9b 31 64 3e 6e 28 30 3e 75 d7 c6 3b
       0.13368912 0.22284548 0.17202923 0.006068165
000130 fe d7 33 3c 15 1a 9e bd 5d d4 03 b3 2c e5 a4 a7
       0.0109767895 -0.077198185 -3.0693958e-08 -4.5767613e-15
000140 b4 89 00 00 d9 3f 00 00 2a 89 00 80 13 45 0c aa
       4.9399e-41 2.2904e-41 -4.9205e-41 -1.2458463e-13
000150 83 1e 74 3c 4e b2 98 be 1e 4b 52 bd 99 3a be bd
       0.014899853 -0.29823536 -0.05134117 -0.0928852
000160 93 62 35 3e 01 84 a6 3e 62 58 84 3d 57 b5 a9 be
       0.17713384 0.32522586 0.0646217 -0.33146164
000170 b9 ae b7 bd 34 e9 e1 be 33 82 96 3e 2a 00 8d 3e
       -0.089688726 -0.44123232 0.2939621 0.27539188
000180 b6 62 d4 bb 80 45 9c bc c7 cc 46 bc 95 bc fd 3b
       -0.006481494 -0.019076109 -0.012133784 0.007743428
000190 be f5 0e 37 f0 3b a2 bc 74 0f 2e b4 1f 0d a4 ad
       8.521076e-06 -0.019803971 -1.6210635e-07 -1.8650468e-11
0001a0 81 b7 f9 1c f3 71 34 1b 5b 89 00 80 ed 0f 2e ad
       1.6524872e-21 1.492607e-22 -4.9274e-41 -9.894291e-12
0001b0 f0 c6 04 bd 4a 12 1c 3e 97 9c 7e bd 3d ca 78 3e
       -0.032416284 0.15241352 -0.062161054 0.24295898
0001c0 50 0f 76 be b2 e2 2c 3d 40 05 e9 3d fa 34 2c 3e
       -0.24029279 0.04220838 0.113779545 0.16817084
0001d0 a9 50 e0 3d a2 54 90 bd e3 34 15 3d 2d 35 12 3e
       0.10952885 -0.070473924 0.03642739 0.14278097
0001e0 ac 63 db 3c dd e7 64 3e 2d 11 b6 3d 78 a0 c9 3d
       0.026780926 0.22354074 0.08889995 0.0984506
0001f0 d7 bc 69 be 69 fe 61 be d2 21 ae 3d 82 1a 14 be
       -0.22825943 -0.22069706 0.085025445 -0.14463237
000200 33 51 ae bc 9e c1 88 be 5c 4e 51 3e 6f 46 bc 3d
       -0.021278953 -0.26710218 0.20440048 0.09193122
000210 47 89 00 80 e7 89 00 80 5e 8a 00 00 52 8c 00 00
       -4.9246e-41 -4.947e-41 4.9637e-41 5.0337e-41
000220 8f 92 00 00 a0 8a 00 80 30 d2 cf bd 0c e0 64 3e
       5.2575e-41 -4.9729e-41 -0.10147512 0.22351092
000230 c3 10 59 bc f4 0f 81 3d 45 cc 79 bb 5d 02 98 bd
       -0.013248625 0.06301871 -0.003811614 -0.07422326
000240 54 f7 1f 3e 9d e7 8d 3e 92 a2 ed be 44 fd 8c bd
       0.15621692 0.2771577 -0.46413094 -0.06884244
000250 58 25 e4 bd 9a 1b b9 be 73 aa 00 80 4e 8a 00 80
       -0.11139935 -0.3615387 -6.1146e-41 -4.9614e-41
000260 c9 8c 00 80 07 8a 00 00 52 a8 00 80 7b 89 00 80
       -5.0504e-41 4.9515e-41 -6.0382e-41 -4.9319e-41
000270 e9 1c fc 3c 93 73 0a 3e 19 99 03 be f5 f7 6e be
       0.030775504 0.1352065 -0.12851371 -0.23336776
000280 9f e5 8b 3e 03 cb 8b bd 69 26 53 b0 42 c7 96 94
       0.27323624 -0.06825831 -7.6815937e-10 -1.5224723e-26
000290 3b 89 00 00 de 88 00 00 d6 95 00 80 56 73 8f 9e
       4.9229e-41 4.9099e-41 -5.3751e-41 -1.5188416e-20
0002a0 e8 1b 7f b7 ec 42 17 b8 a9 1f 27 2f 7b d5 61 b3
       -1.5205682e-05 -3.606353e-05 1.519981e-10 -5.2581054e-08
0002b0 44 8a 00 00 cd fa d9 b6 af 8a 4c ba d0 ca 34 b8
       4.96e-41 -6.496301e-06 -0.0007802648 -4.3104228e-05
0002c0 7f 94 f8 82 95 42 12 ae 5d 93 00 80 c3 ae 8b b8
       -3.6525557e-37 -3.3255693e-11 -5.2864e-41 -6.6605884e-05
0002d0 87 3b 18 3e 80 19 13 be f0 0f 71 3e 65 f4 96 be
       0.14866458 -0.14365196 0.23541236 -0.29483333
0002e0 e2 9e 7d 3e 0b a4 65 bc cb af 4f b2 22 9b ba 31
       0.2476764 -0.014016162 -1.20889565e-08 5.430949e-09
0002f0 65 69 6a af fe ce 26 b2 c8 e0 1a ae 4e b2 a0 31
       -2.131962e-10 -9.709536e-09 -3.5215192e-11 4.6768838e-09
000300 19 ce f3 b7 ff 52 03 b3 aa cf 03 00 48 30 17 a5
       -2.9063829e-05 -3.05763e-08 3.50002e-40 -1.311352e-16
000310 4f 8c 00 00 a3 fa da b3 fb ac bd 3d 45 ae 92 be
       5.0333e-41 -1.01970066e-07 0.09261509 -0.28648582
000320 0c 66 97 3e f0 a5 ae bd 7b e3 ec 3c 60 48 c3 3c
       0.29570043 -0.08527744 0.028917065 0.023838222
000330 e2 7f 4d 3d 96 db e0 3d d3 f4 93 be 66 6b b8 bb
       0.050170787 0.10979383 -0.28897724 -0.0056280373
000340 a4 79 67 be 7b 50 8a 3c d8 9d 49 be b8 db 82 3e
       -0.22604996 0.01688408 -0.19689119 0.25558257
000350 13 7c 66 3e fe a1 17 be 70 fc c9 bd ab 99 f1 3d
       0.22508268 -0.14807889 -0.09862602 0.11796888
000360 50 06 2a bd 26 65 a0 3e 3d a7 97 be 96 0b ea be
       -0.041509926 0.3132717 -0.2961978 -0.45711964
000370 84 65 86 bd 09 30 22 be 75 d5 19 3e 11 4f 42 be
       -0.06562331 -0.15838636 0.15022834 -0.18975474
000380 65 1c 84 3e c3 3c 68 be 25 72 99 3e 2e 2e ed bc
       0.25802913 -0.22679429 0.29969898 -0.028952684
000390 2c 89 00 80 92 89 00 80 f6 88 00 80 7d 8a 00 00
       -4.9208e-41 -4.9351e-41 -4.9132e-41 4.968e-41
0003a0 2b 9f 00 00 18 89 00 80 ae 1c 39 3d 49 24 35 3e
       5.7099e-41 -4.918e-41 0.045193367 0.17689623
0003b0 fc a6 07 3d 15 3b fa 3c af 3f 4d be 87 19 5e be
       0.033118233 0.03054575 -0.20043825 -0.21689425
0003c0 e8 6b 15 ba 06 2b 56 bc ba 53 0b bc 17 33 22 3c
       -0.0005699978 -0.013071781 -0.008503849 0.009899876
0003d0 c4 e5 02 bc 3a 40 b8 bb 75 59 43 8b 8e b2 82 8a
       -0.007989351 -0.005622891 -3.7622934e-32 -1.258571e-32
0003e0 de 8f 00 89 98 6b 42 09 8d cb 37 86 42 db b0 8a
       -1.5475086e-33 2.340249e-33 -3.456802e-35 -1.7030659e-32
0003f0 6b 24 8e b5 f7 83 55 a8 dd e5 bf 1a 13 9a 12 a5
       -1.0590423e-06 -1.18524905e-14 7.936711e-23 -1.2715684e-16

conv1.nn.0.bias f4 [128]
000000 65 8a 00 80 4b 9e 00 80 ba 72 ec b5 2f f3 ee 38
       -4.9647e-41 -5.6785e-41 -1.761676e-06 0.00011394021
000010 0e d7 d5 bc c4 89 00 00 47 d5 77 bd 07 9f 5c bc
       -0.026103523 4.9421e-41 -0.06050613 -0.013465649
000020 05 25 d9 a9 9f 89 00 00 8c 4d 86 b8 8d ff 49 3d
       -9.643158e-14 4.9369e-41 -6.404062e-05 0.049315978
000030 25 1c e3 3c d0 88 00 00 02 bd ab 3c d6 e8 40 3d
       0.027723381 4.9079e-41 0.02096415 0.04709705
000040 f3 87 20 bb 4a 89 00 80 b1 cf a9 bc b7 23 cb bc
       -0.0024495095 -4.925e-41 -0.020728918 -0.024797304
000050 4a 1a 62 3b b5 91 9f 3a 04 8d 00 00 41 8e 00 bc
       0.0034500533 0.0012174161 5.0587e-41 -0.007846416
000060 e2 fd 0f be 3e a8 00 80 b7 93 87 3d b4 89 00 80
       -0.14061692 -6.0354e-41 0.06619971 -4.9399e-41
000070 c2 89 00 00 57 8a 00 80 8d 6f 0c 3d 84 e3 4d 30
       4.9418e-41 -4.9627e-41 0.03428607 7.4901885e-10
000080 d5 88 00 80 4b 9e 65 3e 58 bf a1 bb 76 c8 d8 bd
       -4.9086e-41 0.22423665 -0.00493614 -0.1058511
000090 6b ac 39 3d 21 30 3a 3d 41 99 00 80 cc 3c 04 bd
       0.045330446 0.045456056 -5.4977e-41 -0.032284543
0000a0 73 5b a4 bc 81 01 49 08 b6 89 00 80 e9 04 f4 06
       -0.020063138 6.0488005e-34 -4.9401e-41 9.1789814e-35
0000b0 e0 88 00 00 66 a8 95 b8 f9 90 00 00 5d 89 00 80
       4.9101e-41 -7.13624e-05 5.2006e-41 -4.9277e-41
0000c0 6a 7f bd 3d 00 7c ee bc eb 35 d6 1d d9 88 00 80
       0.09252818 -0.029111862 5.670108e-21 -4.9092e-41
0000d0 0c 8b 13 8d b5 c4 6e 05 26 6e ac 24 96 bc f6 3c
       -4.5465244e-31 1.12268356e-35 7.477971e-17 0.030119222
0000e0 e4 c1 7c 3d b4 3b 0d 3b 70 9a 53 3e 1f 78 20 9e
       0.061708346 0.0021550478 0.20664382 -8.49517e-21
0000f0 4e 4b 72 bc 7a 4d a5 99 a9 89 00 00 ea 51 45 3c
       -0.014788462 -1.7091893e-23 4.9383e-41 0.012043456
000100 ae 89 00 00 43 a0 9b 87 09 05 7a 02 f4 25 5f 3d
       4.939e-41 -2.3416001e-34 1.8368544e-37 0.054479554
000110 59 9f 4e 3c 0d a7 82 0a 1b 8b 00 80 9f 83 e7 3c
       0.012611234 1.2581382e-32 -4.9902e-41 0.028261004
000120 ab 57 8b bc 76 89 00 00 41 89 00 80 d7 88 00 00
       -0.017009577 4.9312e-41 -4.9237e-41 4.9089e-41
000130 c2 87 b3 bb 82 89 00 00 5a ec 7d b9 b7 97 fa bb
       -0.00547883 4.9329e-41 -0.00024216008 -0.0076474803
000140 9f 57 85 ba b0 cb 80 bc f2 6d 2a bd 59 79 8a 3c
       -0.0010173208 -0.015722126 -0.04160876 0.016903566
000150 e3 3b a7 8e 8e ac 00 80 1b 7e 00 80 0a 8a 00 80
       -4.1226347e-30 -6.1901e-41 -4.5238e-41 -4.9519e-41
000160 ca 88 00 80 24 78 2a 3d 38 99 ae 3c 4e 79 b3 bc
       -4.907e-41 0.04161848 0.021313295 -0.021908429
000170 1b b4 2c 8b c4 89 00 00 f9 5d e6 8f 48 4b 8a 35
       -3.326149e-32 4.9421e-41 -2.2715948e-29 1.0303711e-06
000180 41 89 00 80 04 2c a3 3d ae 5e 29 3a 84 92 00 80
       -4.9237e-41 0.0796738 0.0006460947 -5.256e-41
000190 ce f3 32 be d4 55 81 bd 11 eb 0d 9d fb 06 0b bd
       -0.17475817 -0.063151985 -1.8782721e-21 -0.033942204
0001a0 ee b9 7b 3d 7a 68 85 3d 95 c8 88 3c 2a 03 4a 05
       0.061456613 0.06514068 0.016697207 9.4985755e-36
0001b0 af a1 00 80 18 9e 5a be d4 a8 a7 bc 85 7b 61 bd
       -5.8001e-41 -0.2134937 -0.020466246 -0.055049438
0001c0 b7 74 b2 3c af 44 2b bd ef 88 00 80 06 8a 00 00
       0.02178417 -0.04181355 -4.9123e-41 4.9513e-41
0001d0 44 8f 17 bb 84 55 80 bd e8 a2 5c be db 76 5f bd
       -0.0023126164 -0.06266311 -0.21546519 -0.05455671
0001e0 4b 8c 60 be df fc 9a bd 99 06 62 3c f9 88 00 80
       -0.21928518 -0.075677626 0.013795518 -4.9137e-41
0001f0 18 45 89 ba 40 af 00 80 97 89 00 80 ce 86 0b be
       -0.0010472862 -6.2868e-41 -4.9358e-41 -0.13625643

conv1.nn.2.weight f4 [128, 128]
000000 09 65 01 80 69 89 00 80 9f 8d 00 00 f2 a9 00 00
       -1.2808e-40 -4.9293e-41 5.0804e-41 6.0965e-41
000010 bf 88 00 00 68 89 00 80 76 78 03 8d f1 8a 00 00
       4.9055e-41 -4.9292e-41 -4.051249e-31 4.9843e-41
000020 40 a3 00 00 f8 8f 00 80 e4 a2 00 80 80 8a 00 80
       5.8563e-41 -5.1646e-41 -5.8434e-41 -4.9684e-41
000030 71 28 a2 10 38 9d 00 80 0e 8a 00 00 ca 95 00 80
       6.3960043e-29 -5.64e-41 4.9525e-41 -5.3734e-41
000040 02 9c 00 00 9b 8d 00 00 78 89 00 80 61 c3 17 a1
       5.5965e-41 5.0798e-41 -4.9314e-41 -5.141937e-19
000050 d5 8a 00 00 88 8a 02 80 a6 8a 00 00 a3 8a 00 00
       4.9804e-41 -2.33367e-40 4.9738e-41 4.9733e-41
000060 a8 08 a9 8a fb 89 00 00 d0 89 00 00 ba 88 00 80
       -1.6277364e-32 4.9498e-41 4.9438e-41 -4.9048e-41
000070 f0 ec 00 00 a1 94 00 00 a1 7f bb 05 66 08 00 80
       8.4997e-41 5.3318e-41 1.7632279e-35 -3.013e-42
000080 87 97 00 80 3b 8b 00 80 97 6d 00 00 59 4f de 8e
       -5.4358e-41 -4.9946e-41 3.9313e-41 -5.4803634e-30
000090 ff 88 00 00 46 5d 00 00 63 8c 00 80 b2 89 00 00
       4.9145e-41 3.346e-41 -5.0361e-41 4.9396e-41
0000a0 49 8a 00 80 a4 8d 00 00 a6 8c 00 80 d9 ab 00 80
       -4.9607e-41 5.0811e-41 -5.0455e-41 -6.1647e-41
0000b0 8f 8b 00 00 53 a9 00 00 1e 8a 00 80 06 8a 00 00
       5.0064e-41 6.0742e-41 -4.9547e-41 4.9513e-41
0000c0 05 87 55 1f 19 8a 00 80 cb a8 00 00 28 e6 00 80
       4.521619e-20 -4.954e-41 6.0552e-41 -8.2565e-41
0000d0 00 a0 00 00 f3 89 00 00 92 68 01 80 19 4c 40 a5
       5.7397e-41 4.9487e-41 -1.29348e-40 -1.6679128e-16
0000e0 ab 09 27 81 e7 09 1c 00 d7 12 b3 1b 26 aa 00 00
       -3.0679992e-38 2.574946e-39 2.962524e-22 6.1038e-41
0000f0 be 91 00 00 ee 8a 00 80 f8 98 00 00 96 8f 00 80
       5.2282e-41 -4.9839e-41 5.4875e-41 -5.1509e-41
000100 24 89 00 00 53 c9 00 80 58 6f 01 00 a6 8a 00 00
       4.9197e-41 -7.2222e-41 1.31778e-40 4.9738e-41
000110 3f 89 00 00 bc 88 00 00 f9 a8 00 80 96 b9 77 02
       4.9235e-41 4.9051e-41 -6.0616e-41 1.8199955e-37
000120 19 8b 00 00 17 03 00 80 c5 88 00 00 be 8a 00 00
       4.9899e-41 -1.108e-42 4.9064e-41 4.9771e-41
000130 d6 8a 00 80 f0 a3 00 80 ca 8a 00 80 7f 05 1b 8b
       -4.9805e-41 -5.881e-41 -4.9788e-41 -2.985605e-32
000140 a1 8d 00 80 48 89 00 80 ad 89 00 00 a0 15 42 0a
       -5.0807e-41 -4.9247e-41 4.9389e-41 9.3448274e-33
000150 37 8a 00 80 bb 88 00 80 88 a6 00 00 07 89 00 80
       -4.9582e-41 -4.905e-41 5.974e-41 -4.9156e-41
000160 94 8d 00 00 b9 89 00 80 39 89 00 80 4f e5 01 00
       5.0789e-41 -4.9406e-41 -4.9226e-41 1.74096e-40
000170 9b 89 00 80 51 8a 00 80 08 d9 00 80 e9 ec 00 00
       -4.9364e-41 -4.9619e-41 -7.7856e-41 8.4987e-41
000180 df a9 00 80 32 f9 11 88 10 89 00 80 71 ef 00 80
       -6.0938e-41 -4.392728e-34 -4.9169e-41 -8.5895e-41
000190 45 59 ad 94 19 89 00 80 c3 a5 00 80 01 8c 00 80
       -1.7503747e-26 -4.9181e-41 -5.9464e-41 -5.0224e-41
0001a0 45 2b 0b 84 bc 89 00 00 7b 8a 00 00 cd 8b 00 80
       -1.635924e-36 4.941e-41 4.9677e-41 -5.0151e-41
0001b0 80 8a 00 00 e5 68 01 80 99 8a 00 80 59 93 00 80
       4.9684e-41 -1.29465e-40 -4.972e-41 -5.2858e-41
0001c0 e4 8f 00 80 55 89 00 80 47 9e 00 00 bb 7a 00 80
       -5.1618e-41 -4.9265e-41 5.6779e-41 -4.4027e-41
0001d0 26 67 01 00 da 4a 03 80 d0 89 00 80 2f f1 3b 04
       1.28838e-40 -3.02358e-40 -4.9438e-41 2.209249e-36
0001e0 e4 a9 00 00 50 89 00 00 a6 89 00 00 fe a5 00 80
       6.0945e-41 4.9258e-41 4.9379e-41 -5.9547e-41
0001f0 5c 92 00 00 ba 88 00 00 f6 9f 00 80 1a 89 00 80
       5.2504e-41 4.9048e-41 -5.7383e-41 -4.9183e-41
000200 d4 03 00 80 0d a1 00 80 58 71 f0 9c 9c de 31 2e
       -1.373e-42 -5.7774e-41 -1.5911166e-21 4.0442857e-11
000210 4e 5b 17 3b d3 88 00 80 7b 3c a0 3c 46 4d 80 bb
       0.0023095193 -4.9083e-41 0.01956009 -0.0039154617
000220 b8 8c 00 00 0c 99 00 00 21 8a 00 80 d5 4b 8e bb
       5.048e-41 5.4903e-41 -4.9551e-41 -0.004342536
000230 2c ba 93 3c 8f 8b 00 00 db 80 46 3c cc 53 50 3c
       0.01803311 5.0064e-41 0.0121156825 0.012715291
000240 48 2f 34 11 aa ae 00 80 82 ab 26 ba 50 ec db 3c
       1.4214066e-28 -6.2658e-41 -0.0006357954 0.026846081
000250 02 13 a0 bb 34 3f 45 3c 84 ac 00 80 9e a7 51 38
       -0.0048850784 0.012038995 -6.1887e-41 4.998559e-05
000260 ac 17 e0 3a f0 f8 00 00 37 99 a7 3b 0b a2 00 00
       0.0017096899 8.9302e-41 0.0051147 5.813e-41
000270 20 90 00 80 cb 88 00 80 78 d7 62 3c 20 17 cc ab
       -5.1702e-41 -4.9072e-41 0.013845317 -1.450149e-12
000280 01 89 00 00 83 bb 9f bb 97 b3 32 3c 6f 48 6f bc
       4.9148e-41 -0.004874648 0.010907075 -0.014604672
000290 c0 be e4 3a 5b 72 4b 3c 3e 90 00 00 fc 5d a7 ba
       0.0017451867 0.012417401 5.1744e-41 -0.0012769098
0002a0 9e 6c f1 3a 18 ef 5d 84 6f 9b 00 80 99 ed 14 84
       0.0018419211 -2.6088212e-36 -5.5759e-41 -1.7506416e-36
0002b0 d1 88 00 80 ec 31 0a a1 56 a6 00 80 e5 89 00 00
       -4.908e-41 -4.682229e-19 -5.967e-41 4.9467e-41
0002c0 e3 af c8 bc 63 de f6 3b 8c d3 1c 1c 6f 8a 00 00
       -0.024497932 0.007533835 5.188949e-22 4.966e-41
0002d0 df 6d 3a 89 0a 76 e5 83 b8 8f 00 00 2d 52 ea 3c
       -2.2440597e-33 -1.3486511e-36 5.1557e-41 0.028603638
0002e0 63 d4 0f bc d6 19 17 3c 2e 1a 04 bd c6 6d 61 99
       -0.008778664 0.009222468 -0.03225153 -1.1654396e-23
0002f0 ae 48 9e 3a 46 47 57 16 d4 aa 00 80 58 f2 02 bb
       0.0012076104 1.7390052e-25 -6.1282e-41 -0.0019980874
000300 f0 88 00 00 26 83 15 87 5c 70 5c 80 22 a7 8d bb
       4.9124e-41 -1.1248055e-34 -8.489173e-39 -0.0043229023
000310 a5 cd c5 3b 7a 8e 00 80 f4 8b 00 80 0f fd 10 3c
       0.0060364776 -5.1111e-41 -5.0206e-41 0.008849396
000320 81 05 3b 3b c7 88 00 00 1b 89 00 80 1c 8a 00 00
       0.0028537216 4.9066e-41 -4.9184e-41 4.9544e-41
000330 26 32 29 24 81 8b 00 00 c3 49 cb a9 60 5f 22 3c
       3.668851e-17 5.0045e-41 -9.0278066e-14 0.0099104345
000340 2b 76 c8 b2 34 f0 1b 3c 50 66 47 bb 75 2a a5 3c
       -2.3336801e-08 0.009517718 -0.0030425973 0.020161847
000350 3e 8a 00 80 25 ad 00 00 1f 92 00 80 76 89 00 80
       -4.9592e-41 6.2113e-41 -5.2418e-41 -4.9312e-41
000360 4f 9c 00 80 2a c4 8d 38 9e af 7d 3c 15 f2 6f 3c
       -5.6073e-41 6.759942e-05 0.015483765 0.014645119
000370 e8 45 4f 06 74 47 00 80 cc c3 5b 90 13 89 00 80
       3.8983732e-35 -2.5633e-41 -4.334097e-29 -4.9173e-41
000380 29 89 00 80 e9 b3 fa 3a e2 a0 e3 3a 70 90 00 80
       -4.9204e-41 0.0019127104 0.0017366672 -5.1814e-41
000390 b0 99 b0 bb ce e2 c1 3a 37 90 00 80 24 a0 92 39
       -0.0053894147 0.0014792325 -5.1735e-41 0.00027966604
0003a0 7e 57 14 3b f1 bc 0c bb 47 d7 08 bb 0c b2 59 00
       0.0022635157 -0.0021474923 -0.0020880268 8.23723e-39
0003b0 4e 8f 00 80 a5 c0 eb bc cd 53 f9 3a 0f cc 78 bc
       -5.1408e-41 -0.028778384 0.0019022167 -0.01518537
0003c0 93 f4 8b 3b 32 1b 02 3b 16 89 00 00 9a 9f 00 80
       0.004271099 0.0019852635 4.9177e-41 -5.7254e-41
0003d0 5f 21 01 38 aa 3c 35 3c 9b f2 3a bc 76 be e1 3b
       3.0787076e-05 0.011061827 -0.011410381 0.00688916
0003e0 ef 50 2a bc 78 c7 cd bb 4c fe 35 3c 5a 89 00 80
       -0.010395273 -0.006279882 0.011107992 -4.9272e-41
0003f0 5e 5b 65 36 5e 9d 00 80 d9 91 00 80 ff 81 0d bc
       3.4176842e-06 -5.6453e-41 -5.232e-41 -0.0086369505

conv1.nn.2.bias f4 [128]
000000 68 a5 00 80 b0 e4 af b4 e5 20 07 bc 35 54 01 80
       -5.9337e-41 -3.2762682e-07 -0.008247589 -1.22043e-40
000010 1b 85 42 b6 1a 57 40 3e b0 99 00 80 e6 9a 00 00
       -2.898573e-06 0.18783227 -5.5133e-41 5.5567e-41
000020 8a d0 5a 38 ed 95 00 80 39 bc af 3c 16 ea 2c b4
       5.2169467e-05 -5.3783e-41 0.021452056 -1.6103908e-07
000030 2d 8e 00 00 0c 27 0a 3e 4c 89 6e bc eb 6e 2e 27
       5.1003e-41 0.13491458 -0.014559101 2.420748e-15
000040 fc d8 11 b4 04 89 00 00 06 0c 11 b6 20 01 00 00
       -1.3583116e-07 4.9152e-41 -2.1613682e-06 4.04e-43
000050 50 a6 00 00 3e e8 5e b5 4e 8b 00 80 23 94 db bb
       5.9662e-41 -8.30394e-07 -4.9973e-41 -0.006701009
000060 42 1f 04 38 d5 59 23 bb f1 25 00 00 e4 96 00 80
       3.1500364e-05 -0.002492537 1.3611e-41 -5.413e-41
000070 32 7b b9 bb 92 ec 70 b6 23 2c 00 00 0c 34 d5 b6
       -0.005660438 -3.590049e-06 1.5833e-41 -6.3539537e-06
000080 12 ac 00 80 24 51 41 bb f5 56 46 b3 bd 3a 99 b4
       -6.1727e-41 -0.0029497826 -4.6179554e-08 -2.8541209e-07
000090 af f0 69 39 e0 a4 00 80 3f d5 a8 36 cc 91 00 80
       0.00022310273 -5.9146e-41 5.0316153e-06 -5.2302e-41
0000a0 03 9c 00 80 a6 70 28 38 7a a1 a2 3d 0c 96 00 00
       -5.5966e-41 4.0159233e-05 0.079409555 5.3827e-41
0000b0 02 a0 00 80 32 0e 2d 3e 17 73 ad bb b8 14 7a bc
       -5.74e-41 0.16899946 -0.005293261 -0.015263729
0000c0 24 6e 6d 38 56 33 00 00 22 5e 31 38 4f 90 00 00
       5.660778e-05 1.8416e-41 4.2287757e-05 5.1768e-41
0000d0 96 8b 00 00 03 f9 85 b3 75 65 00 80 82 64 d1 b3
       5.0074e-41 -6.23859e-08 -3.6396e-41 -9.750603e-08
0000e0 55 2f 4e 3e c0 88 f6 36 0b 18 be 37 ad aa 00 80
       0.20135243 7.347291e-06 2.266096e-05 -6.1227e-41
0000f0 3a cd 18 37 ce 7f 98 33 08 04 75 b7 6a ae 00 80
       9.107689e-06 7.101299e-08 -1.4604077e-05 -6.2568e-41
000100 c8 4a 86 b3 43 9b ca 37 f1 8f 79 b5 78 e2 42 3b
       -6.253464e-08 2.4152576e-05 -9.296919e-07 0.0029737037
000110 19 c7 53 2f a8 ac 00 80 f7 92 00 00 40 33 7e 37
       1.9261072e-10 -6.1937e-41 5.2721e-41 1.5151512e-05
000120 14 d5 28 3b 48 11 86 b9 9f 7c 9f b7 ec 9b 99 b7
       0.002576177 -0.00025571347 -1.9012308e-05 -1.8311628e-05
000130 27 93 00 80 69 f2 68 3a 86 3f 9c ba 4d ac 00 80
       -5.2788e-41 0.00088862196 -0.0011920787 -6.181e-41
000140 16 8c 00 80 e8 98 00 00 c2 f2 0e 3e df ad 00 80
       -5.0253e-41 5.4852e-41 0.13959792 -6.2373e-41
000150 09 ed 28 b4 0a 90 f6 b2 58 8d 38 3e d6 9a 00 80
       -1.5732452e-07 -2.870367e-08 0.18022668 -5.5545e-41
000160 74 8b 00 00 7e 13 96 3e 24 5b 8d 3c 5f 8a 00 80
       5.0026e-41 0.29311746 0.017255373 -4.9638e-41
000170 f5 83 99 b6 93 92 00 80 ff df 23 b3 60 44 93 b3
       -4.575117e-06 -5.2581e-41 -3.8155118e-08 -6.857658e-08
000180 fc 72 05 36 64 a8 04 bb a1 e8 bf 37 29 89 00 80
       1.9885474e-06 -0.002024197 2.28773e-05 -4.9204e-41
000190 f6 96 97 3d 31 9d 83 36 02 f9 46 3e e9 8c 00 80
       0.074018404 3.9224037e-06 0.19430926 -5.0549e-41
0001a0 1f 3c cf 3d 36 96 00 80 1f 8a 00 80 a1 93 00 80
       0.10118889 -5.3886e-41 -4.9549e-41 -5.2959e-41
0001b0 55 c2 7f 29 45 a3 00 00 bf f3 1e b4 fb 8b 00 00
       5.678993e-14 5.857e-41 -1.4803571e-07 5.0216e-41
0001c0 f7 a6 82 bc f6 89 48 ba 78 27 00 00 fa 8f 00 00
       -0.015948756 -0.00076499523 1.4159e-41 5.1649e-41
0001d0 2e ac 00 80 ac 0e cd b3 af 1b e3 b7 ea 29 00 80
       -6.1766e-41 -9.548725e-08 -2.70734e-05 -1.5036e-41
0001e0 b6 a3 00 80 6d 89 00 00 eb 9b 00 80 91 7c c2 39
       -5.8728e-41 4.9299e-41 -5.5933e-41 0.00037095373
0001f0 3b e5 85 3d 42 37 33 37 47 87 52 bb 88 97 00 80
       0.06537863 1.0682097e-05 -0.0032124089 -5.4359e-41

bn1.weight f4 [128]
000000 9a e5 15 b8 8f 41 8b 39 60 39 d3 3e d9 88 00 80
       -3.57382e-05 0.0002656099 0.4125471 -4.9092e-41
000010 9b ba f4 3e b5 2b 4e 3f e3 8f 00 80 2d 89 00 00
       0.4779862 0.8053544 -5.1617e-41 4.921e-41
000020 a4 a2 56 3f ef 89 00 80 d2 a8 47 3f 24 f3 9b 39
       0.8384192 -4.9481e-41 0.77991974 0.00029745058
000030 db 89 00 80 df 71 6d 3f f3 45 1b 3f fb e8 b8 b5
       -4.9453e-41 0.9275188 0.6065361 -1.3776875e-06
000040 55 12 ce 39 9a a9 00 80 8c d6 23 3f ce aa 00 80
       0.0003930504 -6.0842e-41 0.6399925 -6.1273e-41
000050 dd 8a 00 80 ba b8 60 3e 2a 89 00 80 42 28 2c 3f
       -4.9815e-41 0.21945468 -4.9205e-41 0.6724893
000060 f9 92 fc 3e 2c b8 1a 3f c1 89 00 00 87 89 00 00
       0.4933088 0.60437274 4.9417e-41 4.9336e-41
000070 72 a8 32 3f 68 0d 0f 3f 15 8b 00 00 53 9d 56 3e
       0.6978828 0.5587983 4.9893e-41 0.20958452
000080 9e 89 00 00 c6 4e 34 3f 5a 49 14 3a b7 41 6b 3a
       4.9368e-41 0.704327 0.0005656682 0.0008974331
000090 b1 a7 f3 3e 83 89 00 00 ea 67 01 3f f9 88 00 80
       0.47588876 4.933e-41 0.50549185 -4.9137e-41
0000a0 66 8a 00 80 df 82 f0 3e b4 07 1f 3f dc 8a 00 00
       -4.9648e-41 0.46974847 0.6212113 4.9813e-41
0000b0 dd 88 00 00 9a 69 52 3f 85 04 80 3e b1 d1 bf 3e
       4.9097e-41 0.82192385 0.25003448 0.3746467
0000c0 f6 1a 34 3f 24 89 00 80 34 f5 de 3e 6a 89 00 00
       0.7035364 -4.9197e-41 0.4354645 4.9295e-41
0000d0 9d 89 00 80 48 f7 e4 39 d4 8b 00 80 16 de d3 38
       -4.9366e-41 0.00043671788 -5.0161e-41 0.00010102631
0000e0 73 9a 40 3f b1 1d e7 3e c6 a8 5b 3e e1 88 00 00
       0.7523567 0.4513984 0.214511 4.9103e-41
0000f0 ba 90 10 3f d8 70 2c 39 32 05 d1 3e 39 89 00 00
       0.56470835 0.00016445236 0.40824276 4.9226e-41
000100 e3 96 79 b9 36 11 63 3e 81 b1 0a 3f 72 67 38 3f
       -0.000238027 0.22174534 0.541771 0.72032845
000110 eb ea 0a b4 bd 89 00 00 bf 89 00 00 5e 1b 45 3e
       -1.2937714e-07 4.9411e-41 4.9414e-41 0.19248721
000120 e4 66 1b 3f bc f0 91 3d 6b db d3 3e b4 af c2 3e
       0.60703874 0.071259946 0.4137834 0.38024676
000130 57 89 00 00 c9 3c 21 3f 83 58 67 3f 5e 8a 00 80
       4.9268e-41 0.62983376 0.90369433 -4.9637e-41
000140 a4 8d 00 80 d7 89 00 80 be fa 4b 3f b7 89 00 80
       -5.0811e-41 -4.9448e-41 0.7967948 -4.9403e-41
000150 0c 3e d5 39 ac cd c2 37 70 ed 4d 3f 42 89 00 80
       0.00040672754 2.3222376e-05 0.80440426 -4.9239e-41
000160 f9 88 00 00 3c 86 5a 3f c7 1c 51 3f f0 88 00 00
       4.9137e-41 0.85361075 0.81684536 4.9124e-41
000170 88 bd db 3e be 88 00 80 6e c3 96 39 38 4d 91 b8
       0.42918038 -4.9054e-41 0.00028755836 -6.928522e-05
000180 95 4a c1 3e 93 3b 8b 3d 2f f3 30 3f 05 8a 00 00
       0.37752214 0.06798472 0.6912107 4.9512e-41
000190 a9 b3 62 3f 41 3f 04 3f 74 52 31 3f 3a 89 00 00
       0.8855539 0.5165902 0.6926644 4.9228e-41
0001a0 4e 09 32 3f bf 8a 00 00 7f 89 00 80 7c 89 00 00
       0.6954545 4.9773e-41 -4.9324e-41 4.932e-41
0001b0 50 d1 17 af 15 89 00 00 18 68 05 3a 47 89 00 00
       -1.3807733e-10 4.9176e-41 0.00050890585 4.9246e-41
0001c0 7d d4 17 3f 83 41 33 3f e2 8c 00 00 3b 89 00 80
       0.59308606 0.7002184 5.0539e-41 -4.9229e-41
0001d0 13 93 00 00 e9 e7 01 ba e9 45 47 3e 78 8b 00 80
       5.276e-41 -0.0004955517 0.19460262 -5.0032e-41
0001e0 cf 89 00 80 63 89 00 00 da 88 00 00 67 40 6c 3c
       -4.9436e-41 4.9285e-41 4.9093e-41 0.014419652
0001f0 5a 96 51 3f 1d 53 11 3f c3 2b 02 3f 68 89 00 80
       0.81870043 0.56767446 0.50848025 -4.9292e-41

bn1.bias f4 [128]
000000 12 a0 99 b8 2f d5 43 3e 36 5c 6b be 71 4d 0c bb
       -7.325424e-05 0.19124292 -0.22984394 -0.0021408463
000010 46 e7 e4 bd 81 44 84 3d 7e 6d 85 b9 53 87 14 af
       -0.111769244 0.064583786 -0.00025449315 -1.3508598e-10
000020 ca 8c 29 be 08 e6 d0 ba 48 be ef bd 47 ca bd 3d
       -0.16557613 -0.0015937695 -0.11706215 0.09267097
000030 f0 96 3c bb 71 01 15 3c c0 8e c6 bd e4 2f 25 bc
       -0.002877649 0.009094582 -0.09695196 -0.010082219
000040 6d 7b d7 3d 1a 23 10 b5 0f 1f 0d be 20 cc a5 b4
       0.105215885 -5.369526e-07 -0.13781379 -3.0882165e-07
000050 d3 18 08 a3 cb 2b 82 be 26 08 5f ba 88 88 11 ba
       -7.3778315e-18 -0.25424036 -0.0008507989 -0.0005551656
000060 a3 5a 14 be fd c7 45 be 44 b7 89 bb 42 c5 33 ba
       -0.144877 -0.1931457 -0.004202755 -0.0006857702
000070 1c f8 0f bd f7 73 04 be 38 fe 75 b6 7a ba 12 be
       -0.035148725 -0.12934862 -3.665582e-06 -0.14328948
000080 77 c9 8d b8 85 9d 2b be 8a e4 07 3e f9 e7 71 3e
       -6.76093e-05 -0.16759308 0.13270774 0.23623647
000090 b8 aa f1 bd 3c ab b2 bb b7 af d2 bd 5e 92 5a a9
       -0.1180014 -0.0054525416 -0.10287421 -4.8532677e-14
0000a0 af b9 28 a8 44 04 a0 bd f4 93 76 bd 94 94 6d b6
       -9.366137e-15 -0.078133136 -0.060199693 -3.5402236e-06
0000b0 e6 90 af b9 cb 61 a1 bc d7 33 36 be 71 35 4f be
       -0.0003348656 -0.019699952 -0.17793213 -0.2023523
0000c0 06 fc 56 be 45 4a 07 aa 17 00 68 be 54 08 84 aa
       -0.20994577 -1.2016176e-13 -0.22656284 -2.345369e-13
0000d0 7d a4 02 a1 80 fa 18 3e 3a 7a 2c bb 90 80 6d 3e
       -4.426341e-19 0.14939308 -0.002631797 0.23193574
0000e0 e1 76 cb bd dc 06 6f be 06 e4 ec bd 12 ef ac ab
       -0.09934784 -0.2334246 -0.115669295 -1.228769e-12
0000f0 55 4c 1c be ec 86 34 3e 61 8d 60 be eb aa b6 ae
       -0.15263493 0.17629594 -0.21928932 -8.306763e-11
000100 a1 88 03 3e 38 82 6e be 79 a5 1a be 15 32 2a be
       0.12845089 -0.23291862 -0.15102185 -0.16620667
000110 c0 6a 35 b8 14 eb cf af 28 9f 14 b2 5c a6 3c be
       -4.325318e-05 -3.7820114e-10 -8.650922e-09 -0.18422836
000120 84 fb 63 be 6b 06 00 be 77 6d fc bd 1a 7b 24 be
       -0.22263914 -0.12502448 -0.12325566 -0.16062585
000130 9d 46 0f bb ca 0f 1b bd d6 79 8e bd a1 3b 0b bb
       -0.0021862157 -0.037856854 -0.06956832 -0.0021245258
000140 b4 3e 87 a7 2a 0e 5b b2 7f dd bd 3c cf 98 b2 b9
       -3.753801e-15 -1.2750698e-08 0.023176907 -0.00034064657
000150 81 5a 29 3e ac cf bc 3d 08 32 c3 bd e4 0b 4f bb
       0.16538431 0.09219298 -0.09531027 -0.003159278
000160 85 0c 20 a9 1a b5 1c bd 53 ef f8 bc f8 c5 27 bc
       -3.5537996e-14 -0.03825865 -0.030387556 -0.0102400705
000170 e5 a0 3c be 0b 13 82 3b a1 62 f1 3d d0 9a 20 3e
       -0.18420751 0.0039695553 0.1178639 0.15684056
000180 44 00 de bd 9e 1d b0 bd 8a 88 41 bc 44 5b 8a ba
       -0.108398944 -0.08599399 -0.011812339 -0.0010555764
000190 2d 6e c5 3d c8 c1 6d be 97 9f 70 bd e9 96 90 b9
       0.09640155 -0.23218453 -0.058745947 -0.00027578257
0001a0 37 4f 39 be c2 e3 22 bb 7f 8f 0b bc 60 62 c0 ab
       -0.18096624 -0.0024854993 -0.008518099 -1.3669725e-12
0001b0 14 7d e4 b6 e2 a0 3c ba db 65 51 3e e3 57 22 b9
       -6.8094905e-06 -0.0007195604 0.20449011 -0.00015482264
0001c0 d4 3c 70 be 2c cd 9c be 97 eb 4e bb 4b ce 2a a9
       -0.23460704 -0.30625284 -0.0031573528 -3.7926513e-14
0001d0 16 77 1c b2 52 30 62 3d 0e d5 86 be 10 6e 07 b7
       -9.107472e-09 0.055221863 -0.26334423 -8.072253e-06
0001e0 7f 97 f7 ba bd 36 0e bc 41 90 d7 bb 16 51 1d bd
       -0.0018889754 -0.008680043 -0.0065784757 -0.038407408
0001f0 f9 aa 56 3d 44 d3 5c be 6d 83 2a be 74 13 2c bb
       0.052409146 -0.21564966 -0.16651697 -0.0026256712

bn1.running_mean f4 [128]
000000 04 00 00 00 f3 95 28 3f 33 96 b4 3f 04 00 00 00
       6e-45 0.65853804 1.4108337 6e-45
000010 8e b1 6a 40 d9 5a 98 3e 04 00 00 00 04 00 00 00
       3.667087 0.2975681 6e-45 6e-45
000020 82 8c 73 40 04 00 00 00 58 28 a1 3f 12 49 0f 3f
       3.805451 6e-45 1.2590437 0.5597087
000030 04 00 00 00 9b d1 1c 3f 8b 47 91 3f 32 d1 3a 17
       6e-45 0.6125733 1.1349958 6.0363883e-25
000040 c1 f6 ef 3e 04 00 00 00 cf c2 ce 3f 04 00 00 00
       0.46867946 6e-45 1.6153201 6e-45
000050 04 00 00 00 6b 4a f9 3f 04 00 00 00 95 2a 7f 3f
       6e-45 1.9475836 6e-45 0.9967435
000060 3d 4e 03 40 b1 28 1e 40 04 00 00 00 04 00 00 00
       2.0516503 2.4712336 6e-45 6e-45
000070 37 e6 e5 3f 94 48 20 40 04 00 00 00 8b 78 bb 3f
       1.7960881 2.5044298 6e-45 1.4646162
000080 04 00 00 00 5b b3 9e 3f 40 81 1e 3f 4b 4f 1b 3f
       6e-45 1.2398485 0.6191597 0.60667866
000090 24 c6 d0 3f 04 00 00 00 7c 5f 46 40 04 00 00 00
       1.6310468 6e-45 3.099578 6e-45
0000a0 04 00 00 00 71 79 60 40 1e 08 3d 3f 04 00 00 00
       6e-45 3.5074122 0.7384051 6e-45
0000b0 04 00 00 00 53 51 89 3f 82 cd a7 3f 3c 40 89 3f
       6e-45 1.0727943 1.3109591 1.0722728
0000c0 20 a0 2b 40 04 00 00 00 ff 56 10 40 04 00 00 00
       2.6816483 6e-45 2.2553098 6e-45
0000d0 04 00 00 00 cb 34 19 3f 04 00 00 00 7b db 2c 3f
       6e-45 0.5984618 6e-45 0.675224
0000e0 bd 3b 77 3e 93 69 6e 40 26 87 26 40 04 00 00 00
       0.24143882 3.7251937 2.6019988 6e-45
0000f0 4f 25 d8 3f d7 aa 1d 3f cb 6e dc 3f 04 00 00 00
       1.6886386 0.61588806 1.7221311 6e-45
000100 55 09 04 3f 2b 56 18 40 de 88 ec 3f a8 e3 24 40
       0.5157674 2.3802593 1.8479269 2.576395
000110 1b 81 8b 32 04 00 00 00 04 00 00 00 88 b1 ca 3f
       1.624044e-08 6e-45 6e-45 1.5835428
000120 97 f8 ec 3f 3e d1 4e 3f dd 79 5a 40 e3 50 65 40
       1.8513364 0.8078803 3.413688 3.583062
000130 04 00 00 00 0e 88 cd 3f 51 19 03 40 04 00 00 00
       6e-45 1.6057146 2.0484202 6e-45
000140 04 00 00 00 04 00 00 00 39 d7 59 3f 04 00 00 00
       6e-45 6e-45 0.8509403 6e-45
000150 d5 2c 1c 3f 31 ba 0b 3f 1f 33 47 3f 04 00 00 00
       0.6100591 0.5458098 0.7781238 6e-45
000160 04 00 00 00 ac 6b 13 3f 10 cb 98 3f 04 00 00 00
       6e-45 0.5758617 1.193697 6e-45
000170 18 2d 69 40 04 00 00 00 5d c0 09 3f b9 5a 13 3f
       3.6433773 6e-45 0.5380915 0.57560307
000180 2b ea e4 3f 04 00 00 00 0e 73 5e 40 04 00 00 00
       1.7883962 6e-45 3.4757724 6e-45
000190 f7 54 a9 3f 6d 05 c8 3f bb 50 62 3f 04 00 00 00
       1.3229054 1.5626656 0.88404435 6e-45
0001a0 2f 3a 89 3f 04 00 00 00 04 00 00 00 04 00 00 00
       1.0720881 6e-45 6e-45 6e-45
0001b0 b8 06 fa 2b 04 00 00 00 6e a4 28 3f 04 00 00 00
       1.7765433e-12 6e-45 0.658759 6e-45
0001c0 79 95 00 40 f1 59 01 40 04 00 00 00 04 00 00 00
       2.009123 2.0211146 6e-45 6e-45
0001d0 04 00 00 00 08 00 f0 3e c7 6d 04 40 04 00 00 00
       6e-45 0.46875024 2.0692003 6e-45
0001e0 04 00 00 00 04 00 00 00 04 00 00 00 e6 19 2b 3d
       6e-45 6e-45 6e-45 0.041772746
0001f0 d3 d3 8c 3f 8e 99 85 40 5b 14 1e 40 04 00 00 00
       1.1002144 4.1749945 2.4699924 6e-45

bn1.running_var f4 [128]
000000 04 00 00 00 c5 b2 11 3d 0d 9a 6b 3e 04 00 00 00
       6e-45 0.03557088 0.23007984 6e-45
000010 fe ad 50 3f 0b 15 21 3e 04 00 00 00 04 00 00 00
       0.8151549 0.15730684 6e-45 6e-45
000020 d7 77 65 3f 04 00 00 00 e4 bd 18 3f b3 f2 cb 3c
       0.89635986 6e-45 0.5966475 0.024896001
000030 04 00 00 00 6d bb 7a 3e 04 4a 23 3f 74 7e 88 13
       6e-45 0.2448556 0.63784814 3.445592e-27
000040 9b 6f ba 3c 04 00 00 00 ef 94 4c 3f 04 00 00 00
       0.022758296 6e-45 0.79914755 6e-45
000050 04 00 00 00 8d f2 91 3e 04 00 00 00 2e 63 da 3e
       6e-45 0.28505364 6e-45 0.42653793
000060 91 16 4e 3f ae c2 15 3f 04 00 00 00 04 00 00 00
       0.80503184 0.5850018 6e-45 6e-45
000070 82 7f 39 3f 24 f6 ed 3e 04 00 00 00 29 2a b0 3e
       0.72460186 0.46476853 6e-45 0.34407166
000080 04 00 00 00 13 3c 4c 3f a4 14 e7 3c f7 7f f2 3c
       6e-45 0.79779166 0.028208084 0.029602034
000090 c9 e9 b9 3e 04 00 00 00 af 90 10 3f 04 00 00 00
       0.36311176 6e-45 0.5647077 6e-45
0000a0 04 00 00 00 2b 80 5b 3f 74 b0 a3 3e 04 00 00 00
       6e-45 0.85742444 0.3197056 6e-45
0000b0 04 00 00 00 3e af 33 3f 04 fa 8f 3e 3d a0 94 3e
       6e-45 0.70189273 0.28120434 0.29028502
0000c0 42 10 83 3f 04 00 00 00 f8 ca 10 3f 04 00 00 00
       1.0239336 6e-45 0.56559706 6e-45
0000d0 04 00 00 00 d0 30 e3 3c 04 00 00 00 41 2b 20 3d
       6e-45 0.027733237 6e-45 0.03910375
0000e0 52 1f 92 3e 5c ce 62 3f ff 46 d8 3e 04 00 00 00
       0.2853952 0.8859613 0.42241666 6e-45
0000f0 f4 da 14 3f 02 95 0c 3d 23 cb 20 3f 04 00 00 00
       0.58146596 0.034321792 0.6280996 6e-45
000100 42 eb c6 3c b2 cd cc 3e 9b 15 15 3f 11 f9 56 3f
       0.024282102 0.40000683 0.5823609 0.83973795
000110 f2 89 a2 24 04 00 00 00 04 00 00 00 36 61 4f 3e
       7.048999e-17 6e-45 6e-45 0.20251927
000120 3b 3b 04 3f 83 29 86 3d 97 29 35 3f ee 02 3f 3f
       0.5165288 0.065508865 0.70766586 0.74613845
000130 04 00 00 00 f2 24 80 3f 4b 60 14 3f 04 00 00 00
       6e-45 1.0011275 0.5795943 6e-45
000140 04 00 00 00 04 00 00 00 02 ff d3 3e 04 00 00 00
       6e-45 6e-45 0.41405493 6e-45
000150 43 ad fb 3c f3 e0 c6 3c 40 14 8d 3f 04 00 00 00
       0.030722266 0.024277186 1.1021805 6e-45
000160 04 00 00 00 95 fc ad 3e dc d6 61 3f 04 00 00 00
       6e-45 0.33981767 0.88218474 6e-45
000170 67 5b 4c 3f 04 00 00 00 a1 7a de 3c 3d 35 d3 3c
       0.7982697 6e-45 0.027158083 0.025782222
000180 a1 96 1e 3f 04 00 00 00 54 40 8a 3f 04 00 00 00
       0.6194859 6e-45 1.0800881 6e-45
000190 73 54 53 3f fa 85 17 3f 69 45 0c 3f 04 00 00 00
       0.82550734 0.59188807 0.5479341 6e-45
0001a0 b2 8d d7 3e 04 00 00 00 04 00 00 00 04 00 00 00
       0.42100292 6e-45 6e-45 6e-45
0001b0 c9 10 94 18 04 00 00 00 3a 07 0b 3d 04 00 00 00
       3.8274052e-24 6e-45 0.03394244 6e-45
0001c0 44 d6 f8 3e 44 6b 16 3f 04 00 00 00 04 00 00 00
       0.48600972 0.58757424 6e-45 6e-45
0001d0 04 00 00 00 d3 8c 9f 3c dd db a1 3e 04 00 00 00
       6e-45 0.01947633 0.31613055 6e-45
0001e0 04 00 00 00 04 00 00 00 04 00 00 00 61 b8 54 39
       6e-45 6e-45 6e-45 0.00020286582
0001f0 1d 3a 13 3f e0 34 8f 3f 02 4d 1e 3f 04 00 00 00
       0.5751055 1.1188011 0.61836255 6e-45

conv2.nn.0.weight f4 [128, 128]
000000 ac 00 41 30 ec 5e 7f ba 2f b1 e8 b9 fe 1e d2 34
       7.0213946e-10 -0.00097416225 -0.000443825 3.9138098e-07
000010 2f 23 3c bb 31 86 19 bb b6 79 14 32 79 43 5b 29
       -0.0028707494 -0.0023425932 8.642408e-09 4.868629e-14
000020 97 5b 15 bc f3 6e 8d b3 17 36 f7 b9 10 58 d0 b9
       -0.009116075 -6.586006e-08 -0.0004715181 -0.00039738463
000030 6f a8 fa 33 b9 b1 95 bb 90 92 4a 3a c5 73 6e 35
       1.167217e-07 -0.0045683053 0.0007727528 8.8830376e-07
000040 a9 31 ef b9 03 e7 70 ad df 15 1f bb c6 9e ec 2d
       -0.00045622632 -1.3693715e-11 -0.002427451 2.6900603e-11
000050 92 46 0c 1c a9 ed 47 37 e9 db 0b b3 f0 ef 0f bb
       4.6413324e-22 1.1916659e-05 -3.2563467e-08 -0.0021963082
000060 86 78 05 bb fe 82 7e ba 3f d6 f8 34 a1 a7 88 33
       -0.0020366027 -0.00097088504 4.6349484e-07 6.363485e-08
000070 8c a2 62 ba 03 03 4c bb 48 20 db 2f 2d 54 9a b9
       -0.0008645437 -0.0031129725 3.9858805e-10 -0.00029435885
000080 8b f7 97 32 5c 9d 88 bb ae 17 1b ba db 24 ba ba
       1.7691283e-08 -0.0041691493 -0.00059163093 -0.0014201658
000090 59 8c 1f b8 d4 9b fc 34 5b 30 76 bb 5c a5 4c 22
       -3.8039263e-05 4.7052038e-07 -0.0037565443 2.7734696e-18
0000a0 63 d2 93 a2 8b 82 b0 bb 6c 34 91 ba 9f e1 9d 30
       -4.0067185e-18 -0.0053866557 -0.0011078245 1.1487379e-09
0000b0 86 31 35 33 45 37 24 3b d0 7c 9b 37 f6 03 b4 b9
       4.2187388e-08 0.0025057357 1.853556e-05 -0.00034335227
0000c0 a0 3d 98 bb 88 94 3a a3 41 bf ab ba 7c db 39 a4
       -0.004646018 -1.0114533e-17 -0.0013103263 -4.030139e-17
0000d0 de a1 9a 9a 9b 72 34 ba 2e a6 62 34 56 dc b2 ba
       -6.395442e-23 -0.00068835326 2.1108346e-07 -0.0013645987
0000e0 e6 34 7a 3b 44 67 00 bb aa 04 2f b9 22 da e0 24
       0.0038178503 -0.00195928 -0.00016691038 9.7514046e-17
0000f0 b9 f3 21 bb 67 be 60 ba ff 85 d0 ba 4a 4f d0 27
       -0.002471192 -0.0008573294 -0.0015909075 5.7817563e-15
000100 e4 8d 14 ba 31 12 c0 37 8e 6f b0 ba 6b db 41 bb
       -0.00056668953 2.2896655e-05 -0.001346098 -0.0029580246
000110 86 f4 35 ae f7 43 84 29 a8 2e f4 aa 7c d4 d6 37
       -4.1371816e-11 5.8737676e-14 -4.337548e-13 2.5609734e-05
000120 28 e0 69 b9 37 cb da 36 6f a1 21 bb 80 5f f3 ba
       -0.00022304116 6.5205636e-06 -0.0024662872 -0.001856789
000130 5c 36 92 b3 08 df 06 3a 53 cd 4e bb e5 b3 82 34
       -6.808543e-08 0.00051449286 -0.0031555488 2.4345277e-07
000140 40 30 00 a2 43 9e b7 2c 85 6e 93 bb 3e e6 e7 33
       -1.7372778e-18 5.2187434e-12 -0.004499259 1.07986565e-07
000150 fb 1c 4d ba 7e a8 cf b9 6a ea 49 b9 86 5a 0f 34
       -0.0007824448 -0.00039607653 -0.0001925618 1.3350845e-07
000160 7b f6 3e 23 e2 8f 59 ba ba fa 12 bc 8f 9a aa 35
       1.0352115e-17 -0.0008299333 -0.008970911 1.271097e-06
000170 8f 67 13 bb 64 e1 93 b8 ff b9 05 ba 37 ea 3f ba
       -0.0022492146 -7.0514885e-05 -0.0005101263 -0.00073209725
000180 50 61 ef ba 1a 55 64 35 f0 c3 6a bb 26 f5 9c b1
       -0.0018263254 8.506046e-07 -0.0035822354 -4.5680677e-09
000190 5f e7 30 bb 2f 9e 2a bb 68 fe 65 3b be 3d 21 b3
       -0.0026993377 -0.0026034226 0.0035094265 -3.7541888e-08
0001a0 bf 69 26 bb ad bd a3 33 4b 7b de 35 a3 b9 b7 24
       -0.002539262 7.624781e-08 1.6576172e-06 7.967808e-17
0001b0 8f 50 a9 2d 9a bc b7 b2 5e d6 8f ba ce ce b2 32
       1.924885e-11 -2.138977e-08 -0.001097392 2.0815971e-08
0001c0 12 64 29 b9 43 2e f3 ba 6d 71 c1 34 6f 92 8b 24
       -0.00016154375 -0.0018553216 3.603158e-07 6.052971e-17
0001d0 f1 b5 1f 2b e5 f2 78 b9 a8 74 0b 38 e9 f2 9f 31
       5.674064e-13 -0.00023741608 3.3248827e-05 4.6551247e-09
0001e0 bd c0 69 34 90 d7 98 b4 bb ae 5a 35 78 65 21 b5
       2.1769934e-07 -2.846905e-07 8.1465595e-07 -6.012483e-07
0001f0 0d 7e 5f bb 04 53 7f bb 8b e1 92 b9 ab 90 81 34
       -0.0034102232 -0.0038959393 -0.00028015333 2.4133382e-07
000200 bc 26 cc 35 29 40 94 3d 4c d0 04 3d 25 df b5 b8
       1.5210458e-06 0.072388 0.03242521 -8.6723165e-05
000210 34 11 60 bd 53 db 3a ba 83 73 4a b7 fc 2e 2a 2f
       -0.054703906 -0.0007128019 -1.2067033e-05 1.5478102e-10
000220 7e 1e ad 3d 2b 08 32 b8 38 73 e5 3d e0 7f 79 3d
       0.084530815 -4.2446114e-05 0.11203617 0.060912967
000230 59 f7 26 b9 55 91 35 3d 5b d2 28 3d 88 9e 3e bb
       -0.00015923138 0.044328053 0.041216236 -0.0029086191
000240 93 05 48 3d 8d 25 5a 32 de 6f 6c 3d ed 51 0c b2
       0.04883344 1.2697808e-08 0.057723872 -8.1677e-09
000250 79 dc df 22 c9 89 29 3c ae dd 45 3a 67 85 9c bc
       6.0677706e-18 0.010347792 0.00075479865 -0.01910658
000260 e8 c1 98 bc 73 c0 f7 bc f1 8e 22 b9 11 0b f1 b7
       -0.01864715 -0.030243134 -0.00015502774 -2.8734592e-05
000270 2f 11 16 3c 05 f3 21 3c a5 0c 8c b3 49 ca 1b 3d
       0.00915937 0.0098846005 -6.521558e-08 0.03803471
000280 f1 af 35 36 fc 8f 13 bd 66 7f 8a 3d 0e 85 19 3c
       2.7073513e-06 -0.036025986 0.067625806 0.009370102
000290 56 52 94 3b 1e 6e e0 3b 13 3b 98 bc 50 8c 44 28
       0.004526417 0.0068490645 -0.018582856 1.0910611e-14
0002a0 00 17 b5 a7 18 2a b7 3c 32 88 80 3d 71 de 6d 35
       -5.026253e-15 0.022358939 0.06275977 8.8613075e-07
0002b0 6f b9 f5 b6 8a 96 88 3b e8 fa b9 3a 30 a0 b4 3d
       -7.3231563e-06 0.0041683363 0.0014189156 0.08819616
0002c0 95 ae a7 3c 30 48 a4 a8 44 e1 90 3d 71 c0 48 2a
       0.02046899 -1.8238964e-14 0.07074216 1.7830335e-13
0002d0 6a 85 88 20 9a 56 92 3c 32 51 c7 b8 9a 18 05 3d
       2.3127582e-19 0.01786356 -9.504183e-05 0.032494165
0002e0 64 dc 95 3c 48 cb 2f bd d2 cb ff bc 12 d6 1f 2b
       0.018293567 -0.042918473 -0.031225119 5.678523e-13
0002f0 34 43 4f bd 70 53 50 3d 3d 64 22 3d 12 d0 e8 2d
       -0.0506012 0.050860822 0.039646376 2.6467748e-11
000300 e0 33 12 3d b5 6d f3 3c df de ad bc 40 c4 9f bc
       0.035694003 0.029715398 -0.021224437 -0.019502759
000310 29 dc e4 b4 ae e7 36 af e6 8e 50 30 12 fc 04 bc
       -4.2628497e-07 -1.6635113e-10 7.587303e-10 -0.008116739
000320 de 69 b8 bc d8 a9 1b 3c 22 bd 1d bc bf e0 a2 bc
       -0.022511419 0.009500943 -0.009627612 -0.019882558
000330 03 99 88 39 f6 0f 30 bd 7e 5e c9 bb 43 80 e0 b8
       0.00026053944 -0.04298397 -0.0061452975 -0.00010705043
000340 a5 f8 a3 a6 72 e0 de 30 c4 78 25 3e 36 c9 db 35
       -1.1377792e-15 1.6216417e-09 0.1615935 1.6375332e-06
000350 61 2b 99 3d 74 b6 df 3c fd b4 d0 bd ab 07 aa b9
       0.07478977 0.02730868 -0.10190771 -0.0003243064
000360 b5 c4 03 29 27 31 03 3e 90 7e 72 be d3 50 da ba
       2.925846e-14 0.12811719 -0.23681092 -0.0016656168
000370 b8 2e 6d bc 9b 2b 80 bc 1a 69 28 3d 3b 00 b8 3c
       -0.014476471 -0.015645793 0.041115858 0.022461047
000380 b1 97 b5 bc 66 29 5a 3b 59 20 43 bd d3 6b 77 b8
       -0.022167059 0.0033288836 -0.04763827 -5.8989808e-05
000390 5a aa 92 3c 2c 84 9d 3d aa 84 7a bd 54 21 30 39
       0.017903496 0.076912254 -0.061161675 0.00016797084
0003a0 98 89 32 be da 0f b9 b8 f8 5d b4 ba 9a 67 81 2b
       -0.174353 -8.82444e-05 -0.0013760915 9.194757e-13
0003b0 ac 06 f7 b3 e3 33 74 b8 38 cd c0 3c a5 c8 b8 b6
       -1.15030474e-07 -5.8222457e-05 0.023535356 -5.5069854e-06
0003c0 5a 4f 92 bc 01 92 59 bc 7a 74 a8 bb 9a 1c 17 29
       -0.017860103 -0.013279439 -0.005140838 3.3553543e-14
0003d0 ce 06 74 30 ed 3b 28 3c e1 c2 94 bc df 7b 89 b5
       8.8776353e-10 0.010268194 -0.018159332 -1.0243347e-06
0003e0 c8 09 f5 b8 21 26 14 bc 34 5c 47 39 6d 53 cd ba
       -0.00011684332 -0.009042294 0.00019012467 -0.0015665122
0003f0 4b ec 0b 3e 60 a4 35 bc 80 6f 2b bc 1d 4b 16 ba
       0.13664357 -0.011086553 -0.010463595 -0.00057332386

conv2.nn.0.bias f4 [128]
000000 cf a8 54 bb 6d aa 6e bc a5 88 dd bc 8d 98 b8 bc
       -0.003244925 -0.014567 -0.027042696 -0.02253368
000010 e7 0f fe ba 5b 56 a3 b8 b6 c8 a6 bb b1 5f 48 bb
       -0.0019383401 -7.788531e-05 -0.0050898446 -0.0030574615
000020 3e d6 8c bb 25 6e 6f bc f2 41 9f 3d 73 64 6c 3e
       -0.0042980006 -0.014613663 0.0777625 0.23085193
000030 f0 3a b4 ba 5a 68 87 b9 0a fe 29 b9 1d 03 e8 ac
       -0.0013750475 -0.00025826955 -0.00016211733 -6.5941822e-12
000040 7d 0c 90 b4 8f 59 25 ba 5a 0e 2a 3d fa 1c 90 3d
       -2.6831177e-07 -0.0006307596 0.041517593 0.07036777
000050 08 e0 9e b9 94 13 3d bc 58 10 fe bc 2c 55 34 3e
       -0.00030303025 -0.011540312 -0.031013653 0.17610615
000060 7c 3e 1a bc 48 ce 30 bd e1 74 94 bd 35 6c 0e bc
       -0.0094143115 -0.043165475 -0.072488554 -0.008692791
000070 c2 f2 8f 3e 9f d6 22 bb 8b 7a 80 3d 03 b2 3a 3e
       0.28114897 -0.0024847162 0.06273373 0.18231969
000080 5c a5 b5 bd 1d 9b 18 3b 06 40 ce b8 a6 42 17 3e
       -0.088694304 0.0023285814 -9.834771e-05 0.14771518
000090 01 8c 06 bc 89 cf 1b bd ab c3 07 bd 79 0f 4d 3e
       -0.0082120905 -0.038039718 -0.033145588 0.20025434
0000a0 56 51 0c bc 7a 5e 75 3e ef 83 fc 3d 34 f9 04 bc
       -0.008564314 0.23961821 0.12329852 -0.008116055
0000b0 da 9c 60 be 8a de b4 bb f3 23 33 bc 22 01 76 af
       -0.21934834 -0.005519693 -0.010933864 -2.2373972e-10
0000c0 ac 61 c3 a2 89 b1 c2 3d b1 bc 3a bb fd 8c 63 bb
       -5.295827e-18 0.095065184 -0.0028493816 -0.0034721487
0000d0 82 3d f6 3c f3 d3 07 bc a9 6c dd 3d 90 f9 15 bb
       0.030058626 -0.008290279 0.10811741 -0.0022884347
0000e0 e7 a4 9f bb cb 41 75 bb ee 72 e3 bd f8 8d 06 bd
       -0.004871953 -0.003742325 -0.111059055 -0.032850236
0000f0 c6 aa 9f ba 74 fb 94 b7 ea 38 94 3d 28 10 28 3d
       -0.0012181632 -1.7760067e-05 0.07237418 0.041031033
000100 1d 87 12 b6 8c 08 9c 3d 01 54 4a 3c 76 f6 0f 3d
       -2.1834342e-06 0.07618818 0.01234913 0.035147153
000110 07 2f 46 be 6e 82 94 bb b8 32 af b9 85 4d 01 3e
       -0.19353877 -0.00453215 -0.0003341639 0.12627228
000120 2c 36 fc bd 64 3d 1e b5 83 ce 6d b7 b5 26 6b bc
       -0.1231502 -5.894892e-07 -1.4174383e-05 -0.01435249
000130 74 ae 33 bc 81 b7 83 3d 5a 77 01 3d 35 50 bd bc
       -0.010966886 0.06431485 0.031607963 -0.023109535
000140 a8 ea 25 3e d9 fb 4d bd 19 a2 af bb 28 62 4b 3e
       0.16202796 -0.05028901 -0.0053598997 0.19861662
000150 86 f2 aa bb 51 1f 2a be c3 56 82 bb 3d f2 05 3d
       -0.0052168993 -0.16613509 -0.003977628 0.03270172
000160 c9 dc 7a bb a6 f6 a3 b4 2d 0d 28 3e d5 54 bc 3a
       -0.003827857 -3.0540576e-07 0.16411276 0.0014368544
000170 ce ae 1b bd 3e aa 9e bb 21 3b 93 3e f3 d3 84 2c
       -0.038008504 -0.004842072 0.2875605 3.7751967e-12
000180 57 aa 07 bb 3c 75 e4 b8 59 55 56 b4 d4 ae 07 bd
       -0.0020700896 -0.00010893724 -1.9961352e-07 -0.033125713
000190 2d 91 9f b3 51 a3 04 bd 62 f2 2a b6 66 43 b0 3d
       -7.430422e-08 -0.032382313 -2.547306e-06 0.08606605
0001a0 ad 94 36 3d 9a 4f 58 b5 81 44 9c 3e 0f 8c a0 3e
       0.044575382 -8.0582106e-07 0.30521014 0.31356856
0001b0 5f f5 5f ba 2c 29 af bd 9b ad 53 3d 3e f0 7b bd
       -0.0008543338 -0.08552775 0.051679235 -0.06150841
0001c0 18 6f 8f b2 a3 97 0c be f4 21 ac bc 36 e9 fc ae
       -1.669791e-08 -0.1372972 -0.021012284 -1.150106e-10
0001d0 ae 2f d0 ba dc 15 4c bc e6 ce 97 3d ca 6d f8 ba
       -0.001588335 -0.012456384 0.074125096 -0.0018953618
0001e0 75 ff 05 34 66 d7 55 bc c2 37 28 3c 7a 60 22 3e
       1.2479525e-07 -0.013051843 0.0102672 0.15857115
0001f0 23 60 41 bd df 1d 76 bb df 46 88 2d eb 9f c0 b0
       -0.047210824 -0.0037554426 1.5492883e-11 -1.401529e-09
