gsage_model_final.pth (torch, 748362 bytes, 17 tensors)

weight f4 [128, 6]
000000 e3 d6 04 30 46 7a 2f b0 ca bb cb af 99 cb e5 2e
       4.832669e-10 -6.383839e-10 -3.7058917e-10 1.04498805e-10
000010 61 ef df 2c 8c e1 bb af ce 3d e7 38 53 16 46 b7
       6.3646176e-12 -3.4175363e-10 0.000110264504 -1.1806917e-05
000020 62 5c 96 b6 ed e3 28 37 0c 26 eb b4 35 a1 19 b7
       -4.481103e-06 1.0066648e-05 -4.3799844e-07 -9.157045e-06
000030 3d 19 00 bc 50 52 06 ba 79 76 e5 3a 16 ee de 3a
       -0.007818517 -0.000512396 0.0017506621 0.0017008211
000040 7e 09 a8 b8 0e c9 ce ba f2 8a 00 80 3d 8c 00 80
       -8.012632e-05 -0.0015776472 -4.9844e-41 -5.0308e-41
000050 51 8a 00 00 7a 89 00 80 db 8e 00 80 48 8a 00 80
       4.9619e-41 -4.9317e-41 -5.1247e-41 -4.9606e-41
000060 70 1c 3a a1 50 0b 5e a0 47 4e 5d 9f 12 ac ca 1f
       -6.305689e-19 -1.8807874e-19 -4.686332e-20 8.5834994e-20
000070 91 d8 fc 1e ea 6c 8b 20 d7 67 e4 3c f1 c3 8e 38
       2.6771108e-20 2.361959e-19 0.027881546 6.8075846e-05
000080 9d 15 cc bc 15 93 36 be 0e bf 32 be 62 07 c7 3c
       -0.02491265 -0.17829545 -0.17455694 0.024295513
000090 2d 6c 00 00 a3 8f 00 80 f0 90 00 80 58 8d 00 00
       3.8806e-41 -5.1527e-41 -5.1994e-41 5.0705e-41
0000a0 aa a2 00 80 53 89 00 00 32 ba fd bc 5f 2f 90 bc
       -5.8353e-41 4.9263e-41 -0.030972574 -0.017600713
0000b0 a3 d6 be 3a fa e1 1d 3d 95 04 e5 33 fb 85 5d bc
       0.0014559816 0.038545586 1.0664477e-07 -0.013520713
0000c0 17 89 00 00 6e 8b 00 00 9f 8b 00 80 e4 89 00 80
       4.9179e-41 5.0018e-41 -5.0087e-41 -4.9466e-41
0000d0 c6 ae 00 80 a7 89 00 80 a0 89 00 00 23 89 00 00
       -6.2697e-41 -4.938e-41 4.937e-41 4.9195e-41
0000e0 ef 8b 00 00 77 89 00 00 f6 95 00 00 39 8a 00 80
       5.0199e-41 4.9313e-41 5.3796e-41 -4.9585e-41
0000f0 d9 b7 c5 3d 4a 24 21 be 49 1c 1f 3f 38 67 b2 3e
       0.09654207 -0.157365 0.62152535 0.34844375
000100 74 93 22 3e ec 19 48 be 33 11 ab 37 39 b1 8b 37
       0.15876561 -0.19541138 2.0392798e-05 1.6652617e-05
000110 3e a2 93 37 a2 8c 01 b7 63 db dc 36 63 3c 6c 37
       1.7599315e-05 -7.721743e-06 6.582051e-06 1.4080756e-05
000120 32 89 00 00 c2 89 00 80 7d 8a 00 80 f1 88 00 00
       4.9216e-41 -4.9418e-41 -4.968e-41 4.9125e-41
000130 fd 9c 00 00 39 8a 00 00 53 1f 10 bc 56 99 f7 3b
       5.6317e-41 4.9585e-41 -0.008796531 0.007556121
000140 46 3d 8b 3b be 4c 2e 3a d6 fb 91 37 e7 3b 05 3b
       0.0042492477 0.0006649009 1.7402617e-05 0.0020329894
000150 86 05 4a 3c 20 2f 3d 3c e4 a3 98 3c 5d 7b aa 3c
       0.012330418 0.01154688 0.018632837 0.020810777
000160 c9 9f 0d 37 78 4f 6d 3c b1 65 28 ba 99 a3 75 37
       8.441458e-06 0.014484279 -0.00064238446 1.46412285e-05
000170 42 e6 42 37 98 0b 54 b7 5d 2c 0f 35 34 9c 4a 37
       1.1616912e-05 -1.2638884e-05 5.333621e-07 1.2076507e-05
000180 4f 8a 00 00 0d 8d 00 00 e3 8d 00 80 04 8b 00 80
       4.9616e-41 5.06e-41 -5.09e-41 -4.987e-41
000190 64 a7 00 80 b2 8c 00 00 de 88 00 00 bc 8d 00 00
       -6.0048e-41 5.0472e-41 4.9099e-41 5.0845e-41
0001a0 35 8b 00 00 81 91 00 80 4c 89 00 00 50 8c 00 80
       4.9938e-41 -5.2197e-41 4.9253e-41 -5.0335e-41
0001b0 e0 8a 00 80 6f 93 00 00 d2 91 00 00 77 8b 00 80
       -4.9819e-41 5.2889e-41 5.231e-41 -5.003e-41
0001c0 8d 02 00 00 fe 8f 00 00 9c 89 00 00 a3 8b 00 00
       9.15e-43 5.1655e-41 4.9365e-41 5.0092e-41
0001d0 80 8b 00 00 35 9f 00 00 78 ab 00 80 65 8f 00 00
       5.0043e-41 5.7113e-41 -6.1511e-41 5.144e-41
0001e0 6b 8d 00 00 66 af 00 80 d1 8e 00 00 94 8a 00 00
       5.0731e-41 -6.2921e-41 5.1233e-41 4.9712e-41
0001f0 bd 88 00 80 cb 8b 00 00 95 89 00 00 0b 95 00 00
       -4.9052e-41 5.0148e-41 4.9355e-41 5.3467e-41
000200 b8 8f 00 80 02 8f 00 00 5b a5 00 80 72 94 00 80
       -5.1557e-41 5.1302e-41 -5.9318e-41 -5.3252e-41
000210 bc bb 2b b6 9f ea 2a b3 0a 63 e6 b2 fe b5 9e 32
       -2.5590261e-06 -3.9794596e-08 -2.6820562e-08 1.8476381e-08
000220 f2 18 3b b0 c5 36 ef b2 ab b5 ad b5 03 43 1b b7
       -6.8065653e-10 -2.7848168e-08 -1.2942377e-06 -9.254322e-06
000230 2c 4d 00 b7 04 bd 2f 36 da de ea b4 fc 3c 1c b7
       -7.6473625e-06 2.6187054e-06 -4.3748042e-07 -9.312524e-06
000240 6f 89 00 80 45 8a 00 00 f3 8d 00 00 65 8b 00 80
       -4.9302e-41 4.9602e-41 5.0922e-41 -5.0005e-41
000250 51 aa 00 80 c1 8c 00 80 26 07 5a aa 35 6c b7 aa
       -6.1098e-41 -5.0493e-41 -1.936477e-13 -3.2582414e-13
000260 ed c9 9d aa c8 fa 37 a9 89 b6 74 a7 f8 04 8a 2a
       -2.8028917e-13 -4.085168e-14 -3.3960755e-15 2.4517172e-13
000270 89 89 00 80 0e 8b 00 80 3d 8a 00 00 d1 88 00 00
       -4.9338e-41 -4.9883e-41 4.959e-41 4.908e-41
000280 de 96 00 80 96 8c 00 80 34 89 00 00 50 89 00 00
       -5.4121e-41 -5.0433e-41 4.9219e-41 4.9258e-41
000290 98 8c 00 80 3b 8a 00 80 01 89 00 00 93 8f 00 00
       -5.0436e-41 -4.9588e-41 4.9148e-41 5.1505e-41
0002a0 54 8a 00 80 64 8b 00 80 4e 89 00 80 03 8c 00 80
       -4.9623e-41 -5.0004e-41 -4.9256e-41 -5.0227e-41
0002b0 ac 9d 00 00 a0 8a 00 80 ad 89 00 80 e1 88 00 00
       5.6562e-41 -4.9729e-41 -4.9389e-41 4.9103e-41
0002c0 d6 8a 00 80 7a 89 00 00 54 ae 00 80 99 89 00 00
       -4.9805e-41 4.9317e-41 -6.2537e-41 4.9361e-41
0002d0 51 cf 9a bc 99 a7 9f 3b 6d cb 3d b8 9f f7 a5 3b
       -0.018897684 0.004872274 -4.5250566e-05 0.005064919
0002e0 1c b6 2d b5 03 26 8a bb 92 28 00 80 08 db 03 00
       -6.4712526e-07 -0.004215957 -1.4554e-41 3.5408e-40
0002f0 82 00 04 80 29 bc 02 00 29 9f 00 00 f7 bd 0b 80
       -3.67524e-40 2.5117e-40 5.7096e-41 -1.078337e-39
000300 21 44 e5 ba 40 e0 c2 ba de b2 55 bb 3f c8 0a ba
       -0.0017491617 -0.0014867857 -0.0032607834 -0.0005294121
000310 30 16 6f b8 00 79 12 3a 3e c9 ae 3d 55 f3 d7 bc
       -5.7002704e-05 0.00055874884 0.08534478 -0.026361147
000320 85 57 9a bc 2e 41 15 bd ba e1 1b b8 6a d5 13 bc
       -0.01884056 -0.036439113 -3.7165104e-05 -0.00902305
000330 d6 88 00 80 31 90 00 00 12 8a 00 80 3e 8b 00 80
       -4.9087e-41 5.1726e-41 -4.953e-41 -4.995e-41
000340 5a 9b 00 00 70 89 00 80 b6 6a 97 ac ab 86 03 2e
       5.573e-41 -4.9303e-41 -4.3035254e-12 2.990556e-11
000350 11 a5 af 2d 3f f3 a5 ad 31 0f 7e 2b 0b c2 a4 2d
       1.99685e-11 -1.8866351e-11 9.026001e-13 1.8730814e-11
000360 d1 7b 0d a6 6c 14 ad 23 36 9c 6a 23 1d e4 13 a4
       -4.9087005e-16 1.8765347e-17 1.2718244e-17 -3.2068763e-17
000370 f2 17 01 a3 6b 24 2b a5 78 ea 25 36 0a 76 aa 36
       -6.998175e-18 -1.4844225e-16 2.4723395e-06 5.0801364e-06
000380 88 4c 90 36 55 53 80 b6 08 24 19 35 6b 0a 82 36
       4.300444e-06 -3.8243984e-06 5.7049374e-07 3.8755147e-06
000390 36 77 97 bc 5d 8f 22 3b 41 27 22 3b d7 5e fa 3a
       -0.018489461 0.002480469 0.0024742635 0.0019101751
0003a0 29 9a d1 b9 ce ef 79 bb 44 da 0a b7 1c cd d7 35
       -0.00039978445 -0.003813732 -8.27626e-06 1.6078443e-06
0003b0 f1 82 81 35 0e b5 11 b5 95 b1 08 33 ad c3 5e 35
       9.649358e-07 -5.428018e-07 3.1826477e-08 8.298619e-07
0003c0 8b 91 2b b0 88 6a 1f 31 ea ea c2 30 f9 ba 40 b0
       -6.2416267e-10 2.3198101e-09 1.4182124e-09 -7.0114897e-10
0003d0 49 8d bb 2e 25 f6 da 30 d4 26 b8 3b c9 00 87 3c
       8.528873e-11 1.5931546e-09 0.005619863 0.016479867
0003e0 fe 62 7c bc a9 01 70 bc 4f 4d fb b7 77 55 86 3b
       -0.015404461 -0.014648833 -2.9957531e-05 0.0040995437
0003f0 1f 80 22 36 aa 3d 86 b4 04 33 44 b4 23 57 65 34
       2.4214457e-06 -2.5004312e-07 -1.8272482e-07 2.1358987e-07

bias f4 [128]
000000 f4 2d 7e a7 ed ba 82 2d a5 19 c9 b1 c1 ca 04 80
       -3.5274492e-15 1.48623e-11 -5.8527854e-09 -4.40076e-40
000010 94 48 f8 16 94 37 8e b8 fb 8d 00 00 80 98 80 30
       4.0112364e-25 -6.78144e-05 5.0933e-41 9.356569e-10
000020 b7 4f 01 80 a0 b2 00 00 47 85 62 b6 ab 67 90 ac
       -1.20432e-40 6.4079e-41 -3.3754202e-06 -4.1042356e-12
000030 96 91 00 80 b6 c1 f8 30 c6 5f a7 31 c0 43 05 af
       -5.2226e-41 1.8099431e-09 4.871228e-09 -1.2120349e-10
000040 ca c0 02 80 a7 a3 04 80 c2 1b 00 00 82 19 01 80
       -2.5283e-40 -4.2605e-40 9.958e-42 -1.00986e-40
000050 53 0a 02 00 24 05 00 00 90 94 2b 2a fd 93 dc ab
       1.87375e-40 1.844e-42 1.5239394e-13 -1.5673015e-12
000060 e8 51 03 80 21 8f 90 a0 29 54 00 00 9d 29 03 80
       -3.04889e-40 -2.4489264e-19 3.0191e-41 -2.90435e-40
000070 78 2d 01 80 35 3f 00 00 af 99 a4 b0 f1 1b 08 80
       -1.08147e-40 2.2674e-41 -1.197625e-09 -7.44707e-40
000080 06 90 e1 b0 80 0c 3b b3 16 a8 04 00 35 36 8f a5
       -1.6411839e-09 -4.35507e-08 4.2764e-40 -2.4843278e-16
000090 ce d4 45 9c ff 3d c8 2d 44 cb f0 b3 30 b4 49 2d
       -6.5456876e-22 2.27649e-11 -1.1212845e-07 1.1465537e-11
0000a0 55 70 db a6 0b 12 3d 33 fa 7c 4a ac 1c 79 5e 30
       -1.5226625e-15 4.40214e-08 -2.8775302e-12 8.0935236e-10
0000b0 1e 12 82 32 2a 45 0b a5 6f d9 2a 39 ef 62 19 34
       1.514223e-08 -1.2079762e-16 0.00016293464 1.4285227e-07
0000c0 c9 41 95 b2 63 a5 0d 80 e5 91 00 00 cb 62 c9 38
       -1.7375799e-08 -1.253191e-39 5.2337e-41 9.6028285e-05
0000d0 4c 62 20 90 65 cc 83 32 af e8 d3 a6 06 ce a9 b3
       -3.163016e-29 1.5343355e-08 -1.4704135e-15 -7.907151e-08
0000e0 d3 01 e7 b2 d7 c6 04 00 7b c9 82 b8 b1 52 24 9e
       -2.6892769e-08 4.38672e-40 -6.236412e-05 -8.699188e-21
0000f0 93 1c ad 2c 36 d2 a2 b3 b1 7d 00 80 a8 61 3d 36
       4.920128e-12 -7.58195e-08 -4.509e-41 2.8220038e-06
000100 de 5c 04 80 f4 11 5d 15 e3 87 98 38 02 94 90 36
       -4.00656e-40 4.4644757e-26 7.273236e-05 4.308765e-06
000110 06 74 00 80 26 9f b0 b3 76 6c 00 00 25 0c 02 80
       -4.1621e-41 -8.2245876e-08 3.8908e-41 -1.88028e-40
000120 4d 06 3d b9 87 ba db af 9f 9b 00 00 0c 1a 22 b4
       -0.00018026792 -3.9968404e-10 5.5826e-41 -1.5096902e-07
000130 ec b0 03 00 92 b9 23 2f 0a eb 02 80 c5 ab da a8
       3.38974e-40 1.4890691e-10 -2.67987e-40 -2.4277355e-14
000140 f1 c1 9e b8 d1 eb c3 31 e8 1b 70 33 85 e0 ad 33
       -7.5701515e-05 5.702056e-09 5.5904735e-08 8.09678e-08
000150 f0 71 b9 2a 69 6e 00 00 31 ab 04 80 d0 44 01 00
       3.2941662e-13 3.9608e-41 -4.28754e-40 1.16521e-40
000160 0e 66 26 39 a9 46 31 29 fc f4 94 29 86 53 cb b1
       0.00015869012 3.9363183e-14 6.615018e-14 -5.917573e-09
000170 6b 66 b5 31 5e 6d 80 2f 41 27 aa b6 38 ad 00 00
       5.279437e-09 2.3360774e-10 -5.0709646e-06 6.2139e-41
000180 d5 e5 01 00 e0 78 59 b1 5e b5 d5 aa 54 9d 00 30
       1.74284e-40 -3.1646366e-09 -3.796225e-13 4.6789705e-10
000190 a0 4f 4f 2f fd e8 84 b1 bf db 4f b8 be 0f 3a 05
       1.8854829e-10 -3.8681933e-09 -4.95573e-05 8.748569e-36
0001a0 24 3c 01 00 9d 3b 00 00 0a 31 53 2c 20 f9 71 2f
       1.1341e-40 2.1385e-41 3.0012126e-12 2.2007329e-10
0001b0 96 22 a9 38 14 94 06 b9 8b 2b 03 00 0a b2 39 39
       8.06499e-05 -0.00012834399 2.91127e-40 0.000177093
0001c0 a0 79 6a b9 76 51 05 af 22 2f 9a 2b 6d 09 a2 ae
       -0.00022361288 -1.212522e-10 1.095544e-12 -7.3685814e-11
0001d0 5f 11 7f 24 92 fc 10 b9 d1 92 00 00 a8 93 00 80
       5.5309025e-17 -0.00013827 5.2668e-41 -5.2969e-41
0001e0 27 fe 00 80 79 e6 01 2f dc 47 90 ab 1b af 02 00
       -9.1173e-41 1.1814362e-10 -1.025176e-12 2.46487e-40
0001f0 6c 20 5e a8 7f 5a 01 80 61 1d 92 b1 42 14 01 00
       -1.2330506e-14 -1.243e-40 -4.2524992e-09 9.9103e-41

weight f4 [128, 6]
000000 fe 58 d6 2f 57 bc 0e b0 ec 0e b8 af ce e8 e7 ab
       3.8989606e-10 -5.1926946e-10 -3.3480008e-10 -1.6478153e-12
000010 59 c4 b5 2e 1b 61 d8 af c0 0b 54 3a 3d 8a 35 b7
       8.2658054e-11 -3.935917e-10 0.0008088909 -1.0820627e-05
000020 9e d8 06 b7 de d0 22 37 f9 df 18 b5 61 0b 28 b7
       -8.0374575e-06 9.704583e-06 -5.6950336e-07 -1.001623e-05
000030 41 a4 11 bc 64 96 f4 3b e5 53 ac 3b d7 b1 5c 3b
       -0.008889259 0.007464217 0.0052590244 0.0033675337
000040 25 3c 57 b7 ad 7e 54 ba da 8b 00 80 32 89 00 80
       -1.2829002e-05 -0.00081060344 -5.0169e-41 -4.9216e-41
000050 21 93 00 80 67 89 00 00 e1 a4 00 80 da 8c 00 80
       -5.278e-41 4.929e-41 -5.9147e-41 -5.0528e-41
000060 93 c2 c8 a0 fa 59 03 a1 92 ac 24 a0 dc 5b 2f 1f
       -3.4010076e-19 -4.450361e-19 -1.3948439e-19 3.7133676e-20
000070 35 b4 83 9f d6 57 51 20 ec a5 b4 bd a2 a1 8f 3e
       -5.5778786e-20 1.7732051e-19 -0.088207096 0.28053004
000080 f1 29 ef be d8 0c 88 3e 62 20 52 be 4a eb c2 3d
       -0.46711686 0.265723 -0.20520166 0.09517534
000090 25 89 00 00 2f 8f 00 80 4d 8c 00 00 c0 89 00 00
       4.9198e-41 -5.1365e-41 5.033e-41 4.9415e-41
0000a0 8b 47 00 00 b3 89 00 00 37 ff 9f 3c 1f 71 01 ba
       2.5665e-41 4.9397e-41 0.019530876 -0.0004937816
0000b0 62 3e 83 bc f3 a7 1a 3d 0d ab 81 b6 0f b9 91 bc
       -0.016020957 0.037757825 -3.8644125e-06 -0.017788438
0000c0 58 89 00 80 4e 8b 00 00 d7 8a 00 00 af 8a 00 80
       -4.927e-41 4.9973e-41 4.9806e-41 -4.975e-41
0000d0 bf 9e 00 00 d4 8f 00 80 a2 89 00 00 bb 89 00 00
       5.6947e-41 -5.1596e-41 4.9373e-41 4.9408e-41
0000e0 c8 88 00 00 5e 8a 00 00 d0 8a 00 80 11 8c 00 00
       4.9068e-41 4.9637e-41 -4.9797e-41 5.0246e-41
0000f0 c4 20 07 bd 58 a2 b3 3d fa 28 a4 3d aa d3 fe 3d
       -0.032990232 0.08771199 0.08015628 0.124427155
000100 9a e0 58 ba 33 dc 2e be 81 49 ba 36 2b 77 88 37
       -0.00082732143 -0.17076187 5.551789e-06 1.6267955e-05
000110 89 62 43 37 43 14 56 b7 e4 b6 04 36 b7 22 8d 37
       1.1645848e-05 -1.27601115e-05 1.977599e-06 1.6824675e-05
000120 07 8a 00 00 7d 8a 00 80 1c 8a 00 80 19 8a 00 00
       4.9515e-41 -4.968e-41 -4.9544e-41 4.954e-41
000130 50 9c 00 80 57 89 00 00 2c 57 61 b9 c9 dd cc bb
       -5.6074e-41 4.9268e-41 -0.00021490146 -0.006252025
000140 69 44 8d 3b 34 b8 ee ba 31 06 e3 36 69 70 8f 3a
       0.0043111336 -0.0018212856 6.765848e-06 0.0010943535
000150 4c 81 e9 bc 49 87 1b 3d 0d 77 8a 3c 91 01 a1 3c
       -0.028504036 0.037970815 0.016902471 0.019654067
000160 72 41 64 38 14 41 6c 3c 30 07 37 38 94 1e 22 37
       5.4420387e-05 0.014419813 4.3637294e-05 9.663072e-06
000170 fb 3a 9a 37 3e d7 8c b7 d4 e2 90 35 d4 30 82 37
       1.8385696e-05 -1.678953e-05 1.0794852e-06 1.5519945e-05
000180 bd 8a 00 00 2d 8d 00 00 32 8d 00 80 8c 8b 00 80
       4.977e-41 5.0644e-41 -5.0651e-41 -5.006e-41
000190 f2 71 00 80 c9 8b 00 00 b8 8c 00 80 ef 8a 00 80
       -4.0876e-41 5.0145e-41 -5.048e-41 -4.984e-41
0001a0 69 8b 00 00 be 88 00 00 81 8a 00 00 06 8a 00 00
       5.0011e-41 4.9054e-41 4.9686e-41 4.9513e-41
0001b0 50 8b 00 80 79 89 00 80 0e 8c 00 80 82 89 00 80
       -4.9976e-41 -4.9316e-41 -5.0242e-41 -4.9329e-41
0001c0 ec a5 00 00 bc 8a 00 80 87 8b 00 00 17 8b 00 00
       5.9522e-41 -4.9769e-41 5.0053e-41 4.9896e-41
0001d0 79 8c 00 80 1e 90 00 00 ef 97 00 00 e3 9d 00 00
       -5.0392e-41 5.17e-41 5.4504e-41 5.6639e-41
0001e0 bc 89 00 00 66 8b 00 00 db 8b 00 80 79 89 00 00
       4.941e-41 5.0007e-41 -5.017e-41 4.9316e-41
0001f0 e5 88 00 80 6a 8e 00 00 65 89 00 00 3e 89 00 00
       -4.9109e-41 5.1089e-41 4.9288e-41 4.9233e-41
000200 0e 8f 00 00 8e 89 00 00 35 89 00 80 f8 89 00 00
       5.1318e-41 4.9345e-41 -4.922e-41 4.9494e-41
000210 1a 00 d4 32 ae 68 1f b3 19 58 d2 b2 3e ec 6e 32
       2.4680094e-08 -3.7115278e-08 -2.448728e-08 1.39071386e-08
000220 2a ab 90 31 88 8f 05 b3 fd 7a 47 b8 a7 24 f1 b7
       4.2104107e-09 -3.1097017e-08 -4.755984e-05 -2.8746506e-05
000230 89 f9 a6 b6 e7 3f f1 36 fb 09 85 b5 75 87 26 b7
       -4.9762352e-06 7.189799e-06 -9.912177e-07 -9.92591e-06
000240 ce 89 00 80 79 89 00 80 83 8a 00 80 98 89 00 80
       -4.9435e-41 -4.9316e-41 -4.9689e-41 -4.936e-41
000250 61 9c 00 00 b9 8b 00 80 96 82 9a aa a6 61 c0 aa
       5.6098e-41 -5.0123e-41 -2.7446508e-13 -3.4173809e-13
000260 e7 e4 15 2a f2 d9 bd a9 a7 19 09 a9 90 fd 57 2a
       1.3313275e-13 -8.4310936e-14 -3.044236e-14 1.9183808e-13
000270 ca 88 00 00 2d 89 00 80 cb 88 00 00 b2 89 00 00
       4.907e-41 -4.921e-41 4.9072e-41 4.9396e-41
000280 0e 97 00 00 15 89 00 80 de 89 00 00 e5 88 00 00
       5.4188e-41 -4.9176e-41 4.9457e-41 4.9109e-41
000290 38 89 00 80 29 8b 00 80 ec 9f 00 80 03 89 00 00
       -4.9225e-41 -4.9921e-41 -5.7369e-41 4.915e-41
0002a0 14 8a 00 80 66 89 00 80 07 8a 00 80 9c 8a 00 80
       -4.9533e-41 -4.9289e-41 -4.9515e-41 -4.9724e-41
0002b0 e0 0a 00 80 ca 8a 00 80 1c 8a 00 80 05 89 00 00
       -3.901e-42 -4.9788e-41 -4.9544e-41 4.9153e-41
0002c0 4b 8b 00 80 89 8a 00 00 69 0a 00 80 e3 8c 00 00
       -4.9969e-41 4.9697e-41 -3.734e-42 5.054e-41
0002d0 1c a8 38 bd a9 db 30 bc 7a 41 bb 3b 21 0f a7 3b
       -0.045082197 -0.010794559 0.0057145925 0.005098239
0002e0 ad 4f d4 b4 a9 0f fd bb f9 e0 04 80 1b eb 05 00
       -3.954605e-07 -0.007722814 -4.48047e-40 5.43517e-40
0002f0 99 07 02 00 28 c8 03 00 70 3d 01 00 44 e5 02 80
       1.86397e-40 3.47309e-40 1.13875e-40 -2.65916e-40
000300 3e 68 02 bd 0c 89 c4 3c 5e 24 32 3c 2b 5e 8f 3a
       -0.031837694 0.02399113 0.010872928 0.0010938098
000310 2f 79 94 39 08 a5 11 3b 94 3b e3 3b a5 b0 26 bc
       0.0002831905 0.002222361 0.0069345925 -0.010173951
000320 16 db 38 3a 9b 58 0a bd 1d 08 70 ba 83 42 2a bc
       0.00070516893 -0.033775907 -0.00091564824 -0.010391834
000330 d6 8a 00 80 8a 8a 00 00 a6 8b 00 00 e2 8a 00 80
       -4.9805e-41 4.9698e-41 5.0096e-41 -4.9822e-41
000340 d7 8f 00 00 2d a4 00 80 c3 4a ac 30 25 4f f1 2d
       5.16e-41 -5.8895e-41 1.2535896e-09 2.7433675e-11
000350 c4 3e a1 2d 71 09 ab ad 93 7f b7 ab 18 59 ab 2d
       1.8331454e-11 -1.9444642e-11 -1.3038341e-12 1.9480015e-11
000360 63 24 05 a6 84 6a c2 a4 ca 32 c4 23 5d 40 03 a5
       -4.619296e-16 -8.431453e-17 2.1271873e-17 -1.1384246e-16
000370 94 a4 8a a4 e9 f8 09 25 5e be 40 b9 a9 07 a9 36
       -6.0126766e-17 1.196719e-16 -0.00018381464 5.0374842e-06
000380 24 8d fc 35 43 79 69 b6 ff 14 9a 34 a8 48 61 36
       1.881654e-06 -3.479029e-06 2.8700012e-07 3.3569904e-06
000390 ee 75 ef 3c 0a ef 28 bc dd 87 11 bc 16 c6 a4 ba
       0.029231038 -0.010310898 -0.00888249 -0.0012571241
0003a0 df c9 59 ba 07 cd a1 bb 1d 1b ed 3a 2f 04 74 35
       -0.0008307974 -0.0049377712 0.0018089745 9.090317e-07
0003b0 44 f3 36 35 bc e5 7d b4 ec 9f 1f 34 d0 5a 7f 35
       6.815428e-07 -2.3646038e-07 1.4866208e-07 9.512705e-07
0003c0 bf 77 31 b0 68 c1 d7 30 d3 6a 9b 30 8a 94 36 b0
       -6.4562394e-10 1.5698278e-09 1.1308096e-09 -6.64223e-10
0003d0 a9 62 39 2f aa e1 fe 30 ae b5 61 3d c6 70 13 bb
       1.6860703e-10 1.854507e-09 0.055104904 -0.0022497638
0003e0 0d cb f6 3c 16 81 55 bc 08 44 ac 38 2b 28 79 3c
       0.030126119 -0.013031265 8.214271e-05 0.015207331
0003f0 f6 ca 02 36 cc 7e 77 b4 d1 b6 07 b4 32 d4 41 34
       1.9489648e-06 -2.3049796e-07 -1.2639363e-07 1.8051722e-07

weight f4 [128]
000000 1e ea 5f b6 4d 60 3b b9 14 e1 e7 3b ae 89 00 80
       -3.3365864e-06 -0.00017869585 0.007076392 -4.939e-41
000010 e3 a3 e8 2c ab fd a8 3e 33 89 00 00 53 8c 91 ba
       6.6120317e-12 0.33006033 4.9218e-41 -0.0011104442
000020 52 89 00 00 f7 89 00 00 17 4f c3 3e b6 d2 2e 3b
       4.9261e-41 4.9492e-41 0.38146278 0.0026675886
000030 cd 89 00 80 3b a3 c8 3a d1 85 1b bb a4 cc 00 3a
       -4.9434e-41 0.0015307436 -0.0023730884 0.00049133063
000040 e7 89 00 00 22 23 14 a8 c4 89 00 80 49 89 00 00
       4.947e-41 -8.223269e-15 -4.9421e-41 4.9249e-41
000050 38 89 00 00 93 89 00 80 2c 6f 3a b7 bc 15 d9 b9
       4.9225e-41 -4.9352e-41 -1.1112348e-05 -0.0004140566
000060 6c d3 08 9a 21 89 16 2a 61 89 00 80 4b 89 00 80
       -2.8294926e-23 1.3370252e-13 -4.9282e-41 -4.9251e-41
000070 47 89 00 00 02 5a c2 ae 17 29 c3 ba 99 7b 88 20
       4.9246e-41 -8.838087e-11 -0.0014889565 2.3121086e-19
000080 08 7b 82 39 84 4b 8e 3a aa 89 00 00 67 5e ff 36
       0.00024887198 0.0010856246 4.9385e-41 7.610582e-06
000090 f0 ae ae 32 2f 11 e2 38 c5 4e 08 3a eb f6 dd 38
       2.0335818e-08 0.000107797205 0.0005199726 0.00010584093
0000a0 ef c6 bc 39 8c 9e 1a bc e1 d2 2e b7 84 01 f6 ba
       0.0003600637 -0.009437215 -1.0420307e-05 -0.0018768762
0000b0 ad 5a 37 bb 01 a2 17 38 cb 4a a3 3e fc e3 16 3c
       -0.002797763 3.6152083e-05 0.31893 0.009209629
0000c0 90 0b ab 3b 24 b7 9e 22 25 63 b5 89 25 35 00 3f
       0.005219884 4.3019893e-18 -4.36674e-33 0.5008109
0000d0 f2 e0 0a af 22 14 78 b9 70 ed ff 35 cd 71 cd 39
       -1.2630944e-10 -0.00023658623 1.9068084e-06 0.00039185435
0000e0 69 e3 00 3c 76 89 00 80 5f 4d 07 3f 05 b4 64 b3
       0.007866719 -4.9312e-41 0.52852434 -5.3249114e-08
0000f0 e4 fb 20 b9 ef 03 1b bb aa 89 00 00 b9 b9 a0 3b
       -0.00015352626 -0.0023653468 4.9385e-41 0.0049049524
000100 eb 89 00 80 5e f0 38 35 bc 3b 55 3e 87 1b b6 3e
       -4.9476e-41 6.889512e-07 0.20823568 0.35567877
000110 1c 89 00 00 ff 7f 7b 39 04 8a 00 80 78 89 00 80
       4.9186e-41 0.00023984908 -4.951e-41 -4.9314e-41
000120 cc 1a 30 3f 2b 92 95 39 25 89 00 80 e8 a1 89 ba
       0.6879089 0.00028528398 -4.9198e-41 -0.0010500522
000130 56 64 15 b0 78 3b 7a ba 31 89 00 00 49 64 09 b9
       -5.434847e-10 -0.00095456047 4.9215e-41 -0.00013102697
000140 6c c4 7c 3e e2 ac 76 3b e8 7e 01 ba 98 c8 0a ba
       0.24684304 0.0037639667 -0.000493987 -0.0005294173
000150 e0 13 72 b8 d9 88 00 00 ac 53 3c ad e2 3b 86 13
       -5.7715806e-05 4.9092e-41 -1.0705142e-11 3.3885405e-27
000160 51 b6 2b 3f 0c 00 7f 38 5b 88 eb b7 96 a5 47 3c
       0.6707507 6.079678e-05 -2.8077679e-05 0.012185475
000170 20 41 ec ba 3d 6e f2 ba d0 02 1b 3e 62 89 00 80
       -0.001802478 -0.0018495988 0.15137792 -4.9284e-41
000180 8c 89 00 80 af 41 7b bb 60 80 fe b7 5c d8 92 ba
       -4.9343e-41 -0.003833871 -3.0338939e-05 -0.0011203396
000190 4a df d7 39 cc e3 e9 3a 23 2c fd 3e 6c d1 bb 2f
       0.0004117436 0.0017844378 0.49447736 3.4163905e-10
0001a0 60 89 00 00 02 89 00 00 28 f0 03 3a e3 6c 41 3b
       4.9281e-41 4.9149e-41 0.00050330395 0.0029514364
0001b0 32 45 c1 3e 74 25 b3 3e dc 88 00 80 c1 14 2e 3f
       0.37748104 0.34989512 -4.9096e-41 0.6800042
0001c0 ba 21 e4 3e a5 8d 80 ba 66 7b 0c 3a e9 bd 11 3a
       0.4455698 -0.0009807838 0.0005358964 0.000555961
0001d0 08 47 40 34 40 ac ec 3e 52 89 00 00 2d 89 00 00
       1.7907234e-07 0.46225166 4.9261e-41 4.921e-41
0001e0 0e ba 9e 9a f9 77 de b9 d6 f3 7a b7 8e 89 00 80
       -6.5647856e-23 -0.00042432526 -1.4957934e-05 -4.9345e-41
0001f0 14 70 db b7 62 89 00 80 00 b9 37 bb 45 89 00 80
       -2.6159025e-05 -4.9284e-41 -0.0028033853 -4.9243e-41

bias f4 [128]
000000 a2 f9 ba b6 73 73 37 bb de bf 11 bc 5a 09 0c 80
       -5.572293e-06 -0.0027992397 -0.008895842 -1.10538e-39
000010 2c 54 aa b0 98 03 e7 bd 32 e2 a5 b3 58 c8 1e bc
       -1.2393051e-09 -0.11279982 -7.724556e-08 -0.00969132
000020 fd fa 22 80 f4 85 20 80 89 09 11 be 19 35 8f ba
       -3.212444e-39 -2.986789e-39 -0.14163794 -0.0010925859
000030 5a 12 03 80 2b 44 a3 bc 21 ad 2f bd 34 a2 82 ba
       -2.8209e-40 -0.019929966 -0.042889718 -0.0009966553
000040 74 7d 00 80 72 7b 00 80 a6 96 0e 80 12 d0 0b 80
       -4.5004e-41 -4.4284e-41 -1.33974e-39 -1.084832e-39
000050 5e 1b 03 00 90 20 05 80 58 84 00 b9 95 8b 15 bb
       2.85324e-40 -4.70859e-40 -0.00012256333 -0.0022818793
000060 c8 c7 00 00 b1 45 be b9 2b 0f 7b b0 f9 a1 0b 80
       7.1668e-41 -0.00036291548 -9.1334823e-10 -1.068295e-39
000070 56 cc 0e 80 b7 8b 01 80 9e 08 15 bd 9f ba da 98
       -1.358999e-39 -1.41956e-40 -0.03638517 -5.654012e-24
000080 cf e6 8a 3c e9 ca 70 3d 6c 8a 3a 9a 43 74 dd b3
       0.016955761 0.05878726 -3.8575715e-23 -1.0312262e-07
000090 ed 2e 7e af 85 b4 ca ba 46 9a ac 3c a0 29 4c bb
       -2.3117837e-10 -0.0015465176 0.021069657 -0.003115274
0000a0 f6 5f 70 b4 d5 14 a7 bd 56 53 fb ba bf c1 54 bb
       -2.2386652e-07 -0.0815827 -0.0019174616 -0.0032464114
0000b0 b9 91 6d bc 28 26 58 b3 bd fe b2 bd 94 95 eb bc
       -0.014500075 -5.0326122e-08 -0.08739994 -0.028757848
0000c0 51 ec bc bc 07 c9 da 9b 73 3c 10 80 35 dc 44 be
       -0.023061903 -3.6194986e-22 -1.491053e-39 -0.19224627
0000d0 84 35 39 a6 73 6e 24 3c 09 e8 87 b6 50 2b 97 3c
       -6.4257296e-16 0.010036099 -4.050326e-06 0.01845327
0000e0 c8 f3 1c bd 15 a2 1a 80 21 13 ee be e8 61 ab b0
       -0.038318425 -2.445867e-39 -0.4649897 -1.2469714e-09
0000f0 f7 4f 5b b9 7a 1d f1 3c 40 9d 12 00 80 57 55 3d
       -0.00020915257 0.029433 1.70945e-39 0.0520854
000100 3f 06 04 00 4a bf a4 a6 59 17 8d bb 42 59 a9 be
       3.69583e-40 -1.1431635e-15 -0.004305762 -0.3307591
000110 e7 a9 0b 00 3a 44 3b 3c b5 4d 1f 00 cb 22 05 00
       1.07114e-39 0.011429841 2.874776e-39 4.71659e-40
000120 7a de ef 3d 0f 40 62 bb 40 8d 1a 80 84 ac de 3c
       0.11712356 -0.0034523045 -2.438394e-39 0.027181871
000130 77 e2 ab 08 2f 6d d0 ba 9c 7a 51 00 45 53 a6 b8
       1.034493e-33 -0.001590168 7.482659e-39 -7.931007e-05
000140 3e 47 07 bd d6 47 86 bd 34 da b0 3c 83 b6 a7 3c
       -0.033026926 -0.0655667 0.021588422 0.02047277
000150 82 4c 0c b8 0f e9 83 80 27 dc d3 84 7e 42 01 80
       -3.3449855e-05 -1.2114056e-38 -4.980804e-36 -1.15688e-40
000160 97 a3 d1 3d d3 69 18 b9 08 43 c2 b7 99 10 47 bc
       0.102362804 -0.00014535272 -2.3157816e-05 -0.012149953
000170 92 80 25 bc 73 cb 74 bc 23 70 99 bd c8 04 1b 00
       -0.010101454 -0.014941084 -0.074920915 2.481274e-39
000180 07 58 05 80 c6 50 15 bc 8a 7d 35 b9 61 4e ba bc
       -4.90756e-40 -0.009113496 -0.00017308272 -0.022742452
000190 2b 00 41 bc 7b a0 9d bc 43 78 17 bf 31 59 cd 9a
       -0.011779825 -0.019241562 -0.5916788 -8.493011e-23
0001a0 87 ca 05 80 57 32 03 80 85 3d bd b8 45 c7 bb bb
       -5.3183e-40 -2.93565e-40 -9.023681e-05 -0.005730542
0001b0 7a 0d 99 be d1 eb 75 be 18 1e 22 80 78 3a fc bc
       -0.29893094 -0.24015738 -3.133202e-39 -0.030789599
0001c0 c3 30 84 be a4 9a 0d ba a4 e2 68 b7 3d c4 9f bc
       -0.25818452 -0.00054017664 -1.38810465e-05 -0.019502753
0001d0 ca c6 a3 b6 20 87 93 bd 8a fe 01 80 86 9f 7d 85
       -4.8809206e-06 -0.072035074 -1.83147e-40 -1.1925303e-35
0001e0 9d 21 02 80 0d 8b a7 bb c6 e2 cd bb 4f ed b4 ad
       -1.95729e-40 -0.0051130117 -0.006283137 -2.0569017e-11
0001f0 34 a6 15 b7 4d 3f 0a 00 57 37 6f bd c6 e8 06 80
       -8.919789e-06 9.41063e-40 -0.058402386 -6.34516e-40

running_mean f4 [128]
000000 a1 4e e9 b0 5b 90 ce 3b ed 57 b7 bd bd 73 0e 80
       -1.6975329e-09 0.0063038296 -0.089523174 -1.327216e-39
000010 fa 4e 7f a2 df df fd 3e 51 98 07 00 d7 bd 51 be
       -3.4600754e-18 0.49584863 6.9749e-40 -0.20482574
000020 3c a3 00 80 68 8c 0b 00 1b 52 c0 be 7d 84 bb 39
       -5.8557e-41 1.060559e-39 -0.37562642 0.0003576613
000030 95 88 06 00 cd 03 1b bd 8c a1 38 3e f8 03 7b bb
       6.0001e-40 -0.03784542 0.18030375 -0.0038301926
000040 ec 0c 0d 00 81 a4 00 00 10 e4 07 80 cc 56 0f 00
       1.198497e-39 5.9013e-41 -7.24662e-40 1.408669e-39
000050 38 0c 0b 00 a5 53 0a 00 8c ca 93 b7 e8 84 05 ba
       1.014574e-39 9.48361e-40 -1.7618084e-05 -0.0005093352
000060 f4 2a 0b 80 4b 9b 36 2b 7a e0 04 80 32 da 0c 00
       -1.025599e-39 6.48749e-13 -4.47869e-40 1.1803e-39
000070 3e 87 0e 80 3c 7e 00 80 22 43 f1 be bb 37 45 00
       -1.334213e-39 -4.5284e-41 -0.4712153 6.356642e-39
000080 f3 4a 13 be 23 da c4 3e b2 30 08 80 40 4e 23 32
       -0.1438406 0.38447675 -7.52153e-40 9.505641e-09
000090 9d 22 db a7 17 88 a2 ba 41 72 0e 3d f5 4d 47 3c
       -6.082224e-15 -0.0012400177 0.03477693 0.0121645825
0000a0 b9 bc 40 32 d0 bc 03 3f 75 7b e5 37 51 bd a8 3e
       1.12187815e-08 0.5145998 2.7356416e-05 0.32956937
0000b0 32 41 c4 3e fa f5 c3 2d c8 c4 e7 bf d5 65 42 bf
       0.3833099 2.2278169e-11 -1.8106928 -0.75936633
0000c0 7f e9 0b be f0 61 90 82 33 93 09 80 96 3f 46 c0
       -0.1366329 -2.1215112e-37 -8.79325e-40 -3.097631
0000d0 7a 1f 1b 1b 6c 20 5a 3e 00 d4 e2 b2 19 0c 6d be
       1.283147e-22 0.2130143 -2.640627e-08 -0.23149146
0000e0 30 fe cf be e4 72 07 80 08 c0 f9 3e b0 be 6f ab
       -0.40623617 -6.84063e-40 0.4877932 -8.517449e-13
0000f0 f7 e2 bb b8 13 75 ff 3e 27 98 07 80 f0 77 1a 3f
       -8.95913e-05 0.49894008 -6.9743e-40 0.6033926
000100 55 ef 09 00 6f 10 5f 20 7a 27 7c bf ca 94 df bf
       9.12376e-40 1.8894272e-19 -0.98497736 -1.7467282
000110 80 80 09 00 ba e9 43 be 79 46 04 00 53 b0 01 80
       8.72617e-40 -0.19132128 3.92623e-40 -1.55089e-40
000120 96 65 2b 40 bd 57 03 be e3 29 04 80 6d fe 33 3d
       2.6780753 -0.12826438 -3.82368e-40 0.04394381
000130 6f cf 65 80 21 bc 16 b9 85 64 01 80 35 f1 03 b8
       -9.349798e-39 -0.00014375198 -1.27895e-40 -3.1457475e-05
000140 e9 d5 9c 3e ad b6 36 3e 8f 92 7e 3e f8 74 57 3d
       0.3063195 0.17843123 0.24860595 0.052601784
000150 63 cb 0b 3b 75 cb 03 00 e1 29 0e 80 40 a6 06 80
       0.0021330945 3.48493e-40 -1.30072e-39 -6.10652e-40
000160 65 dd 28 bf 4d a6 ea b9 04 1b 54 b4 fc e2 9c be
       -0.6596282 -0.00044755862 -1.9753867e-07 -0.30641925
000170 bc e3 c1 3d cb 20 11 3d 4b 5c 0c be a0 9f 03 00
       0.09467265 0.035431664 -0.13707082 3.32769e-40
000180 aa be 07 80 fc 2f e2 3d 78 8e 0d 39 79 ef 87 3c
       -7.11246e-40 0.110443085 0.00013499882 0.016593682
000190 a5 e7 b0 3d 88 3b 91 bb 6c 2a f1 be c5 73 f9 0f
       0.08637933 -0.0044321455 -0.47102678 2.4597888e-29
0001a0 05 90 01 80 b3 40 00 80 03 82 af b7 01 42 77 3a
       -1.435e-40 -2.321e-41 -2.0922167e-05 0.00094321376
0001b0 15 4e ad bf 62 9c d6 be 11 5e 0b 00 5d 89 aa c0
       -1.3539454 -0.41916186 1.043935e-39 -5.329268
0001c0 67 67 b5 3e ba 12 44 b7 78 c2 b5 35 be c2 6f bd
       0.35430452 -1.16868705e-05 1.3542149e-06 -0.05853533
0001d0 84 70 d4 2e 4f 9d 88 c0 df a5 07 00 18 d3 06 00
       9.6606306e-11 -4.2692027 7.02352e-40 6.26739e-40
0001e0 06 99 01 00 f4 d4 95 3b d1 24 6b bc b4 49 00 80
       1.4673e-40 0.004572505 -0.014352039 -2.644e-41
0001f0 99 d9 83 37 3e e8 05 80 e1 35 13 bf 3e b7 07 80
       1.5717744e-05 -5.4249e-40 -0.5750409 -7.08583e-40

running_var f4 [128]
000000 93 c7 7b 22 c1 82 47 36 7e 4d 39 3a 04 00 00 00
       3.4122497e-18 2.972942e-06 0.0007068737 6e-45
000010 0f 16 3a 04 25 41 31 3e 04 00 00 00 bb 27 db 3b
       2.1874324e-36 0.17310007 6e-45 0.006688086
000020 04 00 00 00 04 00 00 00 84 1a 39 3e 1b 47 97 31
       6e-45 6e-45 0.18076521 4.402762e-09
000030 04 00 00 00 0a a9 60 39 4b 50 13 3c fc 85 4d 35
       6e-45 0.00021425277 0.008991311 7.6563424e-07
000040 04 00 00 00 04 00 00 00 04 00 00 00 04 00 00 00
       6e-45 6e-45 6e-45 6e-45
000050 04 00 00 00 04 00 00 00 f8 00 5c 2d fb 3b 0f 32
       6e-45 6e-45 1.2505767e-11 8.3373335e-09
000060 04 00 00 00 c5 92 c2 17 04 00 00 00 04 00 00 00
       6e-45 1.2574006e-24 6e-45 6e-45
000070 04 00 00 00 04 00 00 00 8d d7 0c 3c 04 00 00 00
       6e-45 6e-45 0.008596313 6e-45
000080 24 0a d2 3b 0f d1 7d 3c 04 00 00 00 8d 46 10 23
       0.0064099003 0.015491738 6e-45 7.821195e-18
000090 64 8a da 0d 1f 29 2e 34 8a 22 a9 3b 03 b5 65 37
       1.3468604e-30 1.6219973e-07 0.005161588 1.3691609e-05
0000a0 c5 20 0f 24 a3 15 61 3c c4 f9 05 2e 7e d3 ca 3b
       3.103594e-17 0.013738069 3.0462535e-11 0.0061897626
0000b0 9a de f5 3b 02 9f b2 1f e9 af 2f 3e 52 60 51 3c
       0.007503343 7.564899e-20 0.17156948 0.012779312
0000c0 1e f9 15 3a 04 00 00 00 04 00 00 00 5d 31 5c 3e
       0.000572102 6e-45 6e-45 0.21503206
0000d0 04 00 00 00 00 23 bb 3b f7 0b a7 24 13 6c c8 3c
       6e-45 0.0057109594 7.2444974e-17 0.024465596
0000e0 89 2d f3 3b 04 00 00 00 8d 80 79 3e 95 56 f2 14
       0.0074211997 6e-45 0.24365444 2.4469906e-26
0000f0 34 04 58 2f f9 7b 36 3d 04 00 00 00 8a 25 c2 3c
       1.9646579e-10 0.044551823 6e-45 0.02369954
000100 04 00 00 00 ce 96 38 01 15 d3 21 3e 08 d4 2c 3e
       6e-45 3.390366e-38 0.15803178 0.16877759
000110 04 00 00 00 22 ab c6 3c 04 00 00 00 04 00 00 00
       6e-45 0.024251524 6e-45 6e-45
000120 df 15 c9 3e b6 7c 1b 3a 04 00 00 00 36 8a d3 3b
       0.392745 0.0005931364 6e-45 0.006455685
000130 04 00 00 00 88 db d7 30 04 00 00 00 39 5f 17 2e
       6e-45 1.5705703e-09 6e-45 3.4418e-11
000140 c5 16 2a 3e 33 e8 43 3c 76 fe a2 3b 59 d4 53 3b
       0.16610248 0.011957216 0.0049741818 0.0032322614
000150 26 65 e8 34 04 00 00 00 04 00 00 00 04 00 00 00
       4.3286963e-07 6e-45 6e-45 6e-45
000160 26 ea 85 3e 9c ea a0 32 58 91 5e 27 03 9e 00 3c
       0.26155204 1.873314e-08 3.088748e-15 0.007850173
000170 44 6d 64 39 0d 77 07 3a ad 1f 81 3e 04 00 00 00
       0.00021784479 0.0005167581 0.2521948 6e-45
000180 04 00 00 00 67 2b 76 3a c9 82 2a 30 f8 4f 2d 3a
       6e-45 0.0009390623 6.2031497e-10 0.00066113425
000190 25 80 62 3b 2d 97 25 36 7e 88 3f 3d 04 00 00 00
       0.0034561243 2.4674912e-06 0.04676103 6e-45
0001a0 04 00 00 00 04 00 00 00 db 37 05 2f ac b1 54 33
       6e-45 6e-45 1.2116123e-10 4.9521688e-08
0001b0 7e 1f be 3d 4c 33 e4 3d 04 00 00 00 27 de 3a 3f
       0.092833504 0.111425966 6e-45 0.7299523
0001c0 55 0c 30 3e 3e e8 c8 30 fd bd 07 2a 52 55 4d 39
       0.17192204 1.4617922e-09 1.2056324e-13 0.00019582108
0001d0 7f ed 45 1e 1e 23 88 3e 04 00 00 00 04 00 00 00
       1.0478206e-20 0.26589292 6e-45 6e-45
0001e0 04 00 00 00 da f8 4d 37 a1 53 1d 37 04 00 00 00
       6e-45 1.2276892e-05 9.377401e-06 6e-45
0001f0 24 3b c9 2d 04 00 00 00 d8 9e 82 3c 04 00 00 00
       2.2877318e-11 6e-45 0.015944883 6e-45

weight f4 [128, 128]
000000 6c 44 4e 2e a0 bc 27 32 48 79 90 33 cd 4d 00 80
       4.6899748e-11 9.763568e-09 6.7275835e-08 -2.791e-41
000010 e2 ff 3b 28 a6 3f 0f 3a fe 2a fa ab 94 55 4f 35
       1.0436071e-14 0.00054645014 -1.7775501e-12 7.723804e-07
000020 48 7d 00 80 8a 5d 00 00 ad a6 c5 38 91 d9 50 33
       -4.4942e-41 3.3555e-41 9.424738e-05 4.862665e-08
000030 94 8a 00 00 d6 e2 f8 b4 cb 2a 38 b5 c6 d3 4e b3
       4.9712e-41 -4.6358645e-07 -6.8607613e-07 -4.815572e-08
000040 c3 45 00 00 9f 82 00 80 6f 5e 04 00 57 b3 02 00
       2.5026e-41 -4.6858e-41 4.01218e-40 2.48006e-40
000050 6f aa 04 00 71 95 00 00 77 43 8e 30 c1 90 d3 32
       4.28482e-40 5.361e-41 1.0351034e-09 2.462946e-08
000060 5a 43 00 00 23 98 44 33 02 51 38 a7 6c 7c 04 00
       2.4161e-41 4.5773174e-08 -2.5579044e-15 4.11976e-40
000070 c2 56 00 00 aa 30 00 00 98 b6 5d 35 80 d4 57 10
       3.1123e-41 1.7457e-41 8.2594624e-07 4.2564978e-29
000080 da 28 1f 37 45 dc ba 38 91 01 39 92 df b1 74 2b
       9.48665e-06 8.9101995e-05 -5.837764e-28 8.693306e-13
000090 e5 33 0c 27 69 88 46 32 0d 6b b6 b6 47 c6 18 33
       1.9457035e-15 1.1556133e-08 -5.436485e-06 3.557059e-08
0000a0 be e5 18 2c 3c 54 f8 b5 c0 f2 87 32 26 21 ea b4
       2.1728032e-12 -1.8501955e-06 1.5826458e-08 -4.3610015e-07
0000b0 bc 8c a4 b5 7c cf ee 2a 78 13 92 39 a7 51 09 35
       -1.2259911e-06 4.2421264e-13 0.00027861795 5.1155297e-07
0000c0 aa b6 b7 b5 c0 0a 61 13 3e 10 01 80 eb 26 b5 b8
       -1.3687725e-06 2.8404293e-27 -9.7662e-41 -8.6380016e-05
0000d0 e5 82 ca 1d de 79 d1 35 67 ef 15 2e 66 1d ad 35
       5.3604297e-21 1.5607181e-06 3.409131e-11 1.289806e-06
0000e0 c1 b9 60 b5 8a 1c 06 80 d4 80 ce 39 dc 29 3d 28
       -8.371681e-07 -5.61251e-40 0.00039387366 1.0500684e-14
0000f0 fb ed 10 31 13 5d 68 36 03 a5 00 00 b5 63 9f 38
       2.1090034e-09 3.462487e-06 5.9195e-41 7.600283e-05
000100 83 5d 03 80 ad 3e 33 1e cc bd 05 3a 55 26 f2 37
       -3.09052e-40 9.489142e-21 0.00051018293 2.8866498e-05
000110 85 0a 02 00 65 09 0f b7 fd 8c 00 00 14 ee 01 80
       1.87445e-40 -8.5256515e-06 5.0577e-41 -1.77242e-40
000120 7b 89 25 ba 84 29 d6 b3 0a 50 01 00 3f 67 54 37
       -0.00063147367 -9.972703e-08 1.20548e-40 1.2660224e-05
000130 d4 8f 74 82 aa ee b7 32 dd 91 00 80 e4 35 4e 30
       -1.7967565e-37 2.1412536e-08 -5.2326e-41 7.5018947e-10
000140 81 80 ae 39 61 81 9b 34 db 2d c8 b5 36 76 40 37
       0.0003328361 2.8965135e-07 -1.4914507e-06 1.1471615e-05
000150 f8 d7 8f b0 9a e2 01 00 09 88 07 80 31 78 00 80
       -1.0466001e-09 1.73125e-40 -6.91649e-40 -4.3117e-41
000160 c0 af 69 3a 3c 40 7f 30 92 7d 56 2f d8 88 14 b4
       0.00089144334 9.285974e-10 1.9507798e-10 -1.3833358e-07
000170 58 11 91 b5 bf 23 2a 34 fc aa 19 38 63 04 00 00
       -1.080839e-06 1.5845488e-07 3.6637284e-05 1.574e-42
000180 e2 6e 01 00 67 95 a9 33 77 ce b7 30 ad 6c 7f b4
       1.31613e-40 7.896852e-08 1.3373683e-09 -2.3788262e-07
000190 f3 6e 88 33 96 13 10 b5 f5 19 2e 39 a9 91 4c 12
       6.353175e-08 -5.367268e-07 0.00016603603 6.455059e-28
0001a0 36 2e 03 00 22 ce 01 00 a0 00 80 30 b1 c6 58 34
       2.92084e-40 1.65782e-40 9.313403e-10 2.0188851e-07
0001b0 77 a3 05 39 9a 3b ce 39 15 22 06 00 02 ae 1e 3a
       0.00012744764 0.00039335788 5.6324e-40 0.0006053151
0001c0 08 9f 09 39 b0 c2 16 32 60 cf 2e 2f 69 7f b8 32
       0.00013124582 8.775416e-09 1.5898882e-10 2.1478359e-08
0001d0 4b a8 34 2e 94 50 59 ba f3 51 01 00 3f f7 4a 00
       4.1076736e-11 -0.00082899 1.21233e-40 6.884522e-39
0001e0 79 d5 00 80 2e 8e 8c 33 f8 a0 5b 33 53 97 e9 a6
       -7.658e-41 6.5451204e-08 5.113631e-08 -1.6208639e-15
0001f0 ae d4 9b 2e 6f 59 01 80 22 13 db 35 f7 6e 00 00
       7.0863634e-11 -1.23918e-40 1.632234e-06 3.9807e-41
000200 f9 06 90 2f f0 50 a6 36 2a 01 e4 36 e8 98 00 80
       2.6198402e-10 4.956608e-06 6.795065e-06 -5.4852e-41
000210 69 90 24 ab 77 10 2e bd 38 df 00 b0 5a 99 8e b9
       -5.8464914e-13 -0.04249617 -4.688334e-10 -0.00027198606
000220 bc 25 1c 00 50 93 00 80 ec eb 2f be eb bc 9b b5
       2.58493e-39 -5.2846e-41 -0.17179841 -1.1603382e-06
000230 57 90 00 80 24 72 3e b8 46 d6 ef b8 d3 82 d8 36
       -5.178e-41 -4.540583e-05 -0.000114363196 6.4525316e-06
000240 37 92 00 00 3c 8b 00 00 4c 9d 00 00 b0 9c 00 80
       5.2452e-41 4.9948e-41 5.6427e-41 -5.6209e-41
000250 05 99 00 80 09 a1 00 00 e4 e9 29 b3 9a a6 98 b5
       -5.4893e-41 5.7769e-41 -3.95611e-08 -1.137337e-06
000260 1f 8a 00 00 a0 5a 0b b8 e6 1e 0f ad 58 9e 00 00
       4.9549e-41 -3.3224584e-05 -8.13547e-12 5.6803e-41
000270 41 8f 00 00 e8 88 00 80 f8 c8 13 3b fc 8d d8 14
       5.139e-41 -4.9113e-41 0.0022550207 2.186643e-26
000280 d2 79 66 3a c9 a6 c0 bb ef 74 03 17 7d 15 0a ae
       0.00087919564 -0.0058792573 4.2475974e-25 -3.1396653e-11
000290 b4 c8 cf 29 fc c8 81 33 72 88 8c 3a f3 02 b6 b6
       9.227463e-14 6.0435895e-08 0.0010721816 -5.424366e-06
0002a0 0d 91 1e af 89 86 af ba 10 0e 4d b5 17 e1 32 3a
       -1.4421549e-10 -0.0013391535 -7.6388915e-07 0.0006823702
0002b0 d8 dc 89 ba f0 15 9b 2d 2f cc d6 3d c8 ab a1 b9
       -0.0010518087 1.7631202e-11 0.10488164 -0.000308363
0002c0 73 b2 94 39 44 12 d2 17 ea 88 00 00 4d 86 50 be
       0.00028361715 1.3575543e-24 4.9116e-41 -0.20363732
0002d0 06 82 2a a1 41 b6 c0 3a 81 39 9e 30 2d 0a 0d bb
       -5.7770325e-19 0.0014702753 1.1512357e-09 -0.0021520958
0002e0 34 2c 8e 39 dd 95 00 00 13 5e 31 be 25 91 1a 2b
       0.00027117284 5.3761e-41 -0.17321043 5.491322e-13
0002f0 9d fa 30 b4 9b 58 9b bc 2e 8b 00 80 83 09 c0 3c
       -1.648245e-07 -0.018963149 -4.9928e-41 0.023442036
000300 31 71 02 80 27 20 cc 1d b2 a7 f6 bd db ca ab bd
       -2.24276e-40 5.4031595e-21 -0.12043704 -0.08388301
000310 36 9a 00 80 b0 3e be bb 0d 9c 00 00 1d 9c 00 00
       -5.532e-41 -0.005805813 5.598e-41 5.6003e-41
000320 4b 96 d3 3d 33 7d 21 b7 e6 9d 00 80 a9 a4 94 b8
       0.103314005 -9.625498e-06 -5.6643e-41 -7.08786e-05
000330 2d 4d 8b 06 b6 e8 be b4 44 9d 00 80 db db 96 b2
       5.239939e-35 -3.5559577e-07 -5.6416e-41 -1.7562277e-08
000340 bf 8b 24 be 4b 5a 1b 39 f8 91 4b 38 68 67 22 3b
       -0.16068934 0.00014815589 4.8534916e-05 0.0024780873
000350 68 c0 7e b5 13 8f 04 00 ad bf 01 81 c9 89 00 80
       -9.490236e-07 4.18667e-40 -2.383108e-38 -4.9428e-41
000360 26 7f 3a 3e 84 27 8a 32 88 5d de b1 c7 71 26 b9
       0.18212566 1.6083284e-08 -6.4716836e-09 -0.00015873379
000370 11 33 c1 b6 3c f0 26 38 ff 50 a5 bc 7e 8c 00 00
       -5.757793e-06 3.980122e-05 -0.020180224 5.0399e-41
000380 5c 8c 00 80 a7 56 c2 3a be 11 80 b3 f9 fb 10 b9
       -5.0351e-41 0.001482685 -5.963692e-08 -0.00013826777
000390 07 a6 04 3a 36 d2 11 39 5b 80 86 3e 7d b2 49 96
       0.00050601404 0.00013906587 0.26269802 -1.6292972e-25
0003a0 56 8c 00 00 93 96 00 80 04 4a 11 b4 6a 9e 77 36
       5.0343e-41 -5.4016e-41 -1.3531104e-07 3.6898077e-06
0003b0 49 f6 34 3d 28 54 60 be 97 a8 00 80 61 88 c5 3c
       0.04418019 -0.21907103 -6.0479e-41 0.024112882
0003c0 6c 16 9f 3d 9f 50 08 b5 1d d8 02 b2 c5 b2 fa 37
       0.077679485 -5.078127e-07 -7.616134e-09 2.9885568e-05
0003d0 f8 df d8 30 d8 d1 f7 3c d4 a8 00 80 49 e3 a9 81
       1.5779724e-09 0.030251428 -6.0564e-41 -6.2406934e-38
0003e0 a4 94 00 00 21 a0 82 36 54 77 37 b6 a5 e4 30 28
       5.3322e-41 3.8929434e-06 -2.7338583e-06 9.819542e-15
0003f0 28 5c f9 2e 5c 8b 00 00 28 b5 3a 3b 28 9d 00 00
       1.1339579e-10 4.9993e-41 0.0028489325 5.6377e-41

bias f4 [128]
000000 70 40 aa 32 43 25 93 38 ba ca 02 00 81 b0 00 00
       1.9819907e-08 7.016447e-05 2.56396e-40 6.3318e-41
000010 8a 88 e4 81 90 69 41 2c f9 56 81 b7 e4 da e2 b7
       -8.3949896e-38 2.7485549e-12 -1.5418498e-05 -2.7043228e-05
000020 68 6d 03 80 5d 6f 85 37 d0 84 39 12 63 6f 01 80
       -3.14754e-40 1.5906693e-05 5.853941e-28 -1.31794e-40
000030 f6 c2 04 80 81 4e c7 af 21 a0 00 00 f9 f1 01 80
       -4.37281e-40 -3.625367e-10 5.7443e-41 -1.78639e-40
000040 5b 53 8a b8 5f 93 00 80 0a 77 a6 b2 3f e1 a1 b7
       -6.595879e-05 -5.2867e-41 -1.9379076e-08 -1.9297584e-05
000050 68 16 b8 b5 9e 40 97 38 fd e4 f1 b7 ea b6 00 00
       -1.3715589e-06 7.212277e-05 -2.883607e-05 6.5617e-41
000060 61 02 59 b9 ea 71 04 00 66 70 72 ab a9 1a 01 00
       -0.00020695619 4.08207e-40 -8.6131655e-13 1.014e-40
000070 ef 05 01 80 08 33 01 80 03 d5 02 00 7c 1d 06 00
       -9.3964e-41 -1.10142e-40 2.60085e-40 5.6159e-40
000080 85 c6 04 80 41 22 a2 b8 ae bc b3 a8 42 7e 04 00
       -4.38557e-40 -7.731142e-05 -1.9954819e-14 4.12635e-40
000090 d1 08 01 80 7a 86 a5 b8 05 8c 26 37 23 b5 82 35
       -9.4998e-41 -7.892861e-05 9.926972e-06 9.738472e-07
0000a0 a9 3a a9 37 31 8c 00 00 df 23 01 00 d1 47 03 00
       2.0173686e-05 5.0291e-41 1.04704e-40 3.0127e-40
0000b0 6b 70 6c b8 7e f3 01 80 db 74 0c b8 99 57 03 80
       -5.6371482e-05 -1.79184e-40 -3.348743e-05 -3.0693e-40
0000c0 ce 1d 00 80 01 42 af 38 b9 4c 03 80 43 cc 02 80
       -1.0692e-41 8.3569445e-05 -3.0303e-40 -2.56946e-40
0000d0 7f a2 2b 0c 64 34 80 b0 79 0d ab 98 d6 4a 6b 28
       1.322226e-31 -9.328116e-10 -4.4216068e-24 1.3061348e-14
0000e0 38 e4 53 b8 a6 8b c2 b6 96 7b 01 80 5e 23 e8 16
       -5.0518865e-05 -5.7979078e-06 -1.3617e-40 3.7503941e-25
0000f0 6b d2 00 00 07 8c c5 38 7b 21 06 00 29 00 01 80
       7.5484e-41 9.419774e-05 5.63024e-40 -9.1893e-41
000100 68 c2 00 00 db 30 46 b8 44 bf 40 b8 0a 65 01 80
       6.974e-41 -4.725238e-05 -4.5954497e-05 -1.28081e-40
000110 96 42 bb 9d 10 81 42 af b9 7f 00 00 de 56 1f b9
       -4.9567336e-21 -1.769005e-10 4.5818e-41 -0.00015195782
000120 e0 0d 22 12 1b d3 00 00 35 78 de 01 8c 37 00 80
       5.113529e-28 7.573e-41 8.172241e-38 -1.9926e-41
000130 6e 40 c0 37 33 86 14 b1 1c 6a 0f 31 6a fa 01 00
       2.2918186e-05 -2.1613118e-09 2.0869555e-09 1.81667e-40
000140 74 9a 49 80 a7 98 03 b9 a3 06 15 80 48 5a 19 39
       -6.759399e-39 -0.00012550001 -1.930926e-39 0.0001462485
000150 69 d5 aa 38 68 5a 48 37 7e 6b d7 b8 01 9f 19 00
       8.1459824e-05 1.1941978e-05 -0.00010272021 2.352927e-39
000160 bf 6f 4c 90 93 d8 9c b7 bc 0b 00 00 40 a0 00 80
       -4.0317992e-29 -1.86975e-05 4.21e-42 -5.7487e-41
000170 e9 98 ca b8 6a 25 03 80 84 9a 66 38 9b 25 36 00
       -9.660592e-05 -2.88928e-40 5.4980177e-05 4.972607e-39
000180 af 0a 02 80 db b9 bb 03 fc 85 f9 a7 12 97 96 38
       -1.87504e-40 1.10335425e-36 -6.925665e-15 7.1806964e-05
000190 cd f2 bd 08 fb fe 8d 35 65 04 01 00 e5 03 a1 ac
       1.1432106e-33 1.0579528e-06 9.3412e-41 -4.5763276e-12
0001a0 d3 c3 02 00 e9 82 7c 1b 90 bb 95 b8 f7 e2 6a b0
       2.5392e-40 2.0887251e-22 -7.13981e-05 -8.545124e-10
0001b0 c5 8b ff 38 b7 9f 2d a8 89 2b 06 00 01 12 e5 2d
       0.00012185382 -9.638062e-15 5.6663e-40 2.6042281e-11
0001c0 55 95 00 80 f7 ca 85 2f 14 a1 05 b9 68 f9 82 b7
       -5.357e-41 2.4336774e-10 -0.00012743875 -1.5613346e-05
0001d0 9c 58 5d 37 eb d1 00 00 b5 9d 1a 26 39 4c 03 80
       1.31932575e-05 7.5304e-41 5.3643216e-16 -3.0285e-40
0001e0 0f 60 00 00 46 70 43 38 5a 3b 00 00 13 d1 02 00
       3.446e-41 4.6596186e-05 2.1291e-41 2.58673e-40
0001f0 16 f4 94 86 28 5c f6 35 c0 a2 f8 35 3c d6 c4 38
       -5.6030065e-35 1.8355249e-06 1.8524806e-06 9.3859126e-05
